ae_model.pth (torch, 56194 bytes, 12 tensors)

encoder.0.weight f4 [50, 100]
00000000: 4594 5dbe 2dc8 d4bd 65c7 24be 9281 cfbd
00000010: 3c3c 693d e512 5cbd 8172 353d 6881 313d
00000020: e506 293d 8003 9abc 7d33 633d 2324 873d
00000030: a869 f93d 18aa db3d f1dd f63c d952 c73d
00000040: 5653 09bd 84f4 ba3c b563 ba3c 5be1 bf3d
00000050: 2874 95bd 4c7f 983d 8778 083e 635e 523d
00000060: 47a2 0c3e 1b3e 403e b733 7d3e fd89 703e
00000070: 0e13 5e3e ca58 b03d 6780 7d3e f75e 0e3e
00000080: a434 833d bf61 263e 8700 df3d acd0 2f3e
00000090: 1115 af3d 80ed 9c3d 3259 a33d f62a 24bd
000000a0: 1029 febd 071b 1cbd 91ff 33be 514d a8be
000000b0: bf1f 94be ce6e aebe eea5 fabe b32d 0dbf
000000c0: c31d 10bf bac3 d4be bb98 09bf 6ee7 d6be
000000d0: 5875 c4be a2f3 bdbe 8fb3 ddbe 2bfe b0be
000000e0: 8c9f b9be 9331 61be 6193 59be a620 8fbe
000000f0: 0863 38be 266d 9dbe 469e 47be fc0e 1ebe
00000100: 05f0 64be dac5 69be 727c 91be bd10 57be
00000110: ee8b 63be 8956 91be 22be 99be c160 76be
00000120: 88d1 d9be e64c c9be 0adb e8be 42d6 dfbe
00000130: 4bcb d8be f1ad 7bbe 309e a0be fb65 8dbe
00000140: 2b98 69be 654d 80be 9dd5 9dbe 0e2f 8dbe
00000150: 6ee1 eabe 4d7f e2be dc56 0cbf ee84 1abf
00000160: abc2 05bf 5457 31bf bf5d 0ebf b649 03bf
00000170: 31ef 18bf 30d8 07bf a4b0 06bf 884f 8dbe
00000180: bcdb 72be 0f81 afbe dea4 97be 583d 7cbe
00000190: 25ad e1be f2cc e7be 0b10 e7be 5c54 f8be
000001a0: c4fb d7be 4b0d b1be 040c aabe 40ca a9be
000001b0: 6f00 52be 574c 83be 6aa1 4bbe 5e2a 04be
000001c0: 0d10 7abe a9b6 dabd 57da 87be e067 64be
000001d0: d458 03be a685 edbd 97eb 9dbd d6e0 bc3c
000001e0: cca8 933a aab7 87bc ca70 1e3c 75be ab3d
000001f0: e4d7 b53d d725 5c3d 0e8d cf3c b921 873d
00000200: 2669 4a3e 376c 183e 7a8d 983d 5590 af3d
00000210: ab54 f13c edd3 f33d 43f3 17bb e053 bd3d
00000220: 682d b23c f7e7 423d bb55 c4bd ea79 8dbd
00000230: 5197 35ba 6ce8 be3d 9a03 193d 9d9c 123e
00000240: 5eb3 fd3d 1e76 7c3d ac6b 5d3c 0870 883d
00000250: b574 163e d5c7 af3c abfb 203e 38b7 013e
00000260: 5755 3e3e 01c8 203e f611 0cbc a3b1 663d
00000270: 4c15 cf3c e3bd b5bd c1d5 8bbe a720 afbe
00000280: 853a babe 4d08 debe 638a f4be a4de 01bf
00000290: f78c ccbe 1200 b3be 37f4 d7be 59a8 9ebe
000002a0: a2f4 afbe 3348 9ebe 9e60 a0be dae1 0cbe
000002b0: 705e 9dbe 683f 80be e4d5 fdbd 33ec 84bd
000002c0: c6b2 08be 8057 06be 3503 a9bd 86b1 33be
000002d0: 1856 9bbd 8a2b bfbe cb76 dcbe d348 30bf
000002e0: cbab 28bf 67c8 2abf c30c 2dbf 2873 16bf
000002f0: b38f 24bf 9db7 b5be 7a0c c2be c0cb acbe
00000300: ecc7 1dbe 04ab 1abe 1890 42bb fb0f 38bd
00000310: 1b98 f83d 843d fc3d 84b2 0d3d 30e2 c9bc
00000320: e61c e63c 9ab0 953d e7b9 013d 81f4 243c
00000330: ba42 563d e461 9bbc 8336 42bb 3a58 0e3c
00000340: 6bad 943d 448b 29bd 3d83 13bd 8086 5d3d
00000350: 30a3 88bd 6a94 b8bc 7850 e0bd 1019 5ebd
00000360: 742d 3dbd 2383 8f3c fae1 8cbd 3b84 c33d
00000370: 68c2 6d3d 193b 9b3c d104 3b3d dec9 d03d
00000380: d669 143d 40d8 a9bc 77be 8b3d fd6d e03d
00000390: 6e94 363e 9267 233e 22e7 5f3d 1284 4c3e
000003a0: 5f77 f93c d96e 7b3d 63b7 d13d fdef 0a3d
000003b0: 3f10 81bd 6da0 1bbe 77f0 0f3d 41c9 3a3d
000003c0: 86f9 ffbc 2644 8bbd 8a3b 013c 6929 9f3d
000003d0: fe87 743d 4fc8 bfbc 736c a73c 40ed d83c
000003e0: 2a68 ec3d 9376 ac3c ed25 c23d d43b 543e
000003f0: 6ff5 1f3e 36a3 1c3e 59cf 913e 2c24 163e
-0.21638592 -0.10389743 -0.16091688 -0.101321355 0.05694221 -0.053728957 0.044298653 0.043336302
0.04126634 -0.018800497 0.055469025 0.065986894 0.121783555 0.10725802 0.030135127 0.09732599
-0.03352674 0.022821672 0.022752622 0.09369155 -0.07297546 0.07446155 0.13327228 0.051359545
0.13733779 0.18773691 0.24726759 0.23490138 0.21686956 0.08610685 0.24756013 0.13903414
0.06406525 0.16248225 0.108887725 0.17169446 0.0854894 0.07662487 0.07975997 -0.040080033
-0.12410176 -0.038111713 -0.1757796 -0.32871488 -0.2893047 -0.34068912 -0.4895472 -0.55147856
-0.5629541 -0.41555578 -0.53748673 -0.41973442 -0.38370776 -0.3709994 -0.43301055 -0.34568915
-0.36254537 -0.21991567 -0.21247627 -0.27954596 -0.18006527 -0.30747336 -0.1949397 -0.15435404
-0.22357185 -0.2282938 -0.28415257 -0.21002479 -0.22221348 -0.28386334 -0.30027872 -0.24060346
-0.42542672 -0.3931648 -0.45479614 -0.43718153 -0.423426 -0.24578072 -0.31370687 -0.27616867
-0.22811954 -0.25059047 -0.30827036 -0.27574962 -0.45875114 -0.44237748 -0.54820037 -0.60359085
-0.52250165 -0.6927388 -0.55611795 -0.5128435 -0.5973998 -0.5306425 -0.5261328 -0.2759974
-0.23716635 -0.3427815 -0.2961797 -0.24632776 -0.4407741 -0.45273548 -0.45129427 -0.4850186
-0.4218427 -0.34580454 -0.33212292 -0.33162117 -0.20507978 -0.2564418 -0.19885793 -0.12906787
-0.24420185 -0.10679371 -0.26533768 -0.2230525 -0.12826854 -0.11597757 -0.07710951 0.023056429
0.0011265515 -0.01656707 0.009670446 0.08385936 0.088790685 0.053747024 0.025335815 0.06598229
0.19766673 0.1488503 0.074488595 0.08572451 0.029459318 0.11905656 -0.0023185767 0.092445135
0.021750167 0.0475845 -0.09586664 -0.06908019 -0.000692715 0.09321675 0.03735695 0.14317556
0.12387727 0.061636083 0.0135144405 0.06661993 0.14692958 0.021457592 0.15721004 0.12667549
0.18587242 0.15701295 -0.008549204 0.05632175 0.02527871 -0.08874109 -0.2731152 -0.342046
-0.36372772 -0.43365708 -0.4776183 -0.5073035 -0.39951298 -0.3496099 -0.4217851 -0.30987814
-0.34366328 -0.3091446 -0.31323713 -0.1375803 -0.30736113 -0.25048375 -0.12394312 -0.06490364
-0.13349447 -0.13119316 -0.08252565 -0.17548189 -0.075847805 -0.37337905 -0.43059382 -0.6886112
-0.65887135 -0.6671204 -0.675976 -0.58769464 -0.6428177 -0.35491648 -0.37900144 -0.337492
-0.15408295 -0.151043 -0.0029687937 -0.044937115 0.12138387 0.12316421 0.034594074 -0.024643987
0.028089952 0.07309075 0.03167143 0.01006806 0.05230973 -0.018967576 -0.0029634542 0.008688027
0.07259639 -0.04139258 -0.03601383 0.054083347 -0.066717505 -0.022531707 -0.10952848 -0.05422312
-0.046185926 0.017518586 -0.06879039 0.09546705 0.05804673 0.018949078 0.04565889 0.10194753
0.036233746 -0.020732999 0.06823438 0.109584786 0.17830059 0.15957478 0.054663785 0.19972256
0.030452428 0.06138501 0.10240056 0.033920277 -0.06301927 -0.15197916 0.035141435 0.045602087
-0.031246912 -0.06800108 0.00788773 0.0777157 0.059700005 -0.023410944 0.020437455 0.026480317
0.11543305 0.021052634 0.0947989 0.20725948 0.15620969 0.15296635 0.28478506 0.14662236

encoder.0.bias f4 [50]
00000000: b338 063f 1ea8 963e c180 363e cf76 a73e
00000010: 277e bd3e dc8b 873e 5d97 183e 7385 e63e
00000020: ce37 9c3e f1c1 fd3d 8d06 2d3e 7603 b53e
00000030: 74b3 603e b128 803e 5104 96be da01 a6bc
00000040: 0d21 19bd 0556 473e a451 a13e a3dd d53e
00000050: a723 aebd aaa3 8b3e c19e 8d3e 28fa c23d
00000060: d47b 03bd c134 c13e b6ae 8c3e 9604 123f
00000070: 9f53 843e 7c97 4c3e 45ba 3e3e 82e5 b43e
00000080: 82c2 343e 6b26 6e3e 4a44 9c3e c0b8 923e
00000090: d862 e5bd a3fe 8a3e 9be4 14be 1edc fd3e
000000a0: e6df e73d c827 993e 9f7b c93e 9a1a 2a3e
000000b0: fbaa 933e 9440 113e 9b7f 7c3e 36d3 4c3e
000000c0: e753 613e 388f ce3d
0.52430266 0.29425138 0.17822553 0.3270783 0.3701031 0.26473892 0.1490149 0.4502369
0.30511326 0.12390507 0.1689703 0.35354203 0.21943456 0.25031045 -0.29300168 -0.020264555
-0.037385035 0.19466408 0.315076 0.41770658 -0.08502894 0.27273303 0.27660182 0.0952037
-0.032100514 0.3773556 0.27477044 0.5703825 0.25845048 0.19979662 0.18625744 0.3533135
0.17652324 0.23256843 0.3052085 0.28656578 -0.112004936 0.27147397 -0.14540331 0.49582
0.11322002 0.29913163 0.39352128 0.1661171 0.28841385 0.14184791 0.24658053 0.20002446
0.22004662 0.100859106

encoder.2.weight f4 [25, 50]
00000000: b609 1d3d 569d 4b3d 1007 d0bd 1e0d 2b3c
00000010: 213c ce3d e4e3 7e3d 5cbf 01be b0a4 78bd
00000020: c51a 3cbc 7342 8fbd acbc 2abe b3ad 96bd
00000030: f64d 273c 06f3 243d 8038 f6bd 7ceb 943c
00000040: a8a3 6dbb f768 d73d 9cbe cfbd ae3d aebd
00000050: d498 dfbd 13ee bfbc 06f9 aebd 89e3 0a3c
00000060: 1ce6 cebd b85a e7bd 7e74 87bd 960e d8bd
00000070: b850 21bd b168 4cbe a8be 26ba b0a5 19be
00000080: dbc1 5cbd 6b1d 1abd b68b 02be ed80 49bc
00000090: 2cb3 9f3d 86f4 c1bd 32db 96bd bc7c 813d
000000a0: bd51 04bc 2eee 323c fe4d 09be b142 cfbd
000000b0: b5f7 e7bc 5657 3fbe e366 f33d 7fb2 b33c
000000c0: 953b 6d3c ec4d 5a3d e615 babd e244 49bc
000000d0: 57d9 6d3e 4669 9b3e 134e 383e 8845 113d
000000e0: 54f2 fc3d e361 24bd 4950 b83d cf72 8c3c
000000f0: 64a2 75bd eeab 5cbe d77c 673e 7569 093f
00000100: 4ec1 b3bd cf93 503d 0b06 953e d4e0 d73d
00000110: b29c d03e 0ff6 e93d c60b 0cbe d386 44bd
00000120: c821 a83e b422 8e3e a05c 373d 412e 783c
00000130: b4c7 b2bc 002d a93e 328c 103e 11fb 5b3e
00000140: ac27 2b3e 0c45 4a3e 373e 0c3e 1576 2dbd
00000150: 5b40 0c3f 2506 5a3e ae78 fd3e a814 fdbd
00000160: 58fd 673e 518c 1a3f 21ec 2d3e b4c5 1e3e
00000170: 24db a1bc 882b 903e 2b4e 273e bea1 483e
00000180: 0117 52bd 304f 9d3e 030d e73d 4ccb 663e
00000190: 0d71 04be e9ff 62bb 971a 703d 5462 213e
000001a0: 6d62 ed3d d3fa 1e3d e7d2 353e 2b2f 0abe
000001b0: b835 abbc 11a9 983d fde6 723d 0697 05bf
000001c0: ba3e 57be f547 c8bd 0639 c93e 57df 923e
000001d0: d3a1 e03d b364 96be c93c 69be 53f2 0dbf
000001e0: a4be d63d be7c 6a3e 1449 80bd 8d0f 1cbe
000001f0: 4007 53bc 924f 18bf 55d8 1cbd 33f9 94bc
00000200: 44fc 00be 557c cbbd 22c5 de3d ceb2 553e
00000210: f665 123e af04 303e baf1 303e 7269 683a
00000220: a3f1 3ebe cce4 18be a01b 833e d2f3 9a3d
00000230: 3a75 423e 7f46 c5be 26c1 05bf f864 8d3e
00000240: cc21 7cbe e865 4c3e 8464 7d3d c81f b1be
00000250: 0cc6 a23d 137c b7be d712 ca3e 0b01 d43e
00000260: 06a3 f63d fe1e f1bd d48e 903e c238 743e
00000270: 3580 72bd 821f ef3d 9e97 043e b6aa b33e
00000280: eee0 2e3e e82a c13e 0240 dc3d a22a 8a3e
00000290: 95b5 76bd e3d5 273d d24d 213e ff4e d2ba
000002a0: 85d4 dd3b 5fcc 8a3e 036d 9e3d 4ce4 9c3c
000002b0: ac7d af3e 48cf b23e 782d c2bd 6364 5a3e
000002c0: 6357 293e 4fe6 f7bd 3335 bf3e a349 823e
000002d0: 0420 91bd 04d0 a83d ea1c c9bd 2578 ae3e
000002e0: f922 fc3d 5241 4f3e e30d 5b3e 26b2 ee3d
000002f0: 7885 3dbe bd77 6abd abf5 563e 3d81 8c3e
00000300: 800a cb3e aa6c bd3d 7b5f 753e bf44 283e
00000310: e735 583e 18ef 7c3e 7381 90bd c342 973e
00000320: 8c48 373e bde0 db3d 1c09 49bd 5115 3a3e
00000330: ecb2 da3e ba88 943d cb14 863e 4f18 173e
00000340: a0ce 4f3e 1a07 7f3e 0b4c 8c3d c021 cc3d
00000350: addd 713c 4dc7 633e 92f3 43be 213d 9fbd
00000360: a5ca 4d3e f2d8 2c3e bbf8 633e eac6 2d3e
00000370: 061d fe3d b623 8e3d f543 893e 5c68 913e
00000380: 0445 06bc d1a1 743c 50fc a73d 261a 5d3e
00000390: b039 0c3e d039 f93d fed2 943d ca44 1a3d
000003a0: bf8b 20bd 8407 d33d 91e0 1f3e 75c0 4c3e
000003b0: 8479 c43e 0ea6 9a3d d1df 903d 2410 2b3d
000003c0: 1e7d 213e 5341 df3e 4f33 163e ff31 3bbd
000003d0: 4095 953e c9ea 163d 02ab 6d3c 6332 123e
000003e0: e679 563e 3e1b 593e 6c33 4f3d 0951 6e3e
000003f0: cd22 80bd 28af 49bd 43c8 e73e 811e 963d
0.03833934 0.049710594 -0.10157597 0.010440139 0.100700624 0.062229052 -0.12670654 -0.060703933
-0.011480992 -0.06995096 -0.16673535 -0.07357349 0.010211458 0.040270828 -0.12022495 0.018178694
-0.0036260877 0.10518067 -0.10143778 -0.08507858 -0.109178215 -0.023428952 -0.08543591 0.0084771
-0.10102484 -0.112966 -0.06614016 -0.10549657 -0.03938362 -0.19961812 -0.00063608075 -0.15004611
-0.053895812 -0.03762571 -0.12748608 -0.012298805 0.07797846 -0.09470467 -0.07366027 0.06322619
-0.008076129 0.010921044 -0.13408658 -0.10120142 -0.028316358 -0.1868566 0.118848585 0.0219357
0.0144795375 0.05329697 -0.09086208 -0.012284489 0.2322744 0.30353755 0.17998533 0.0354667
0.12350908 -0.040132415 0.08999688 0.017144589 -0.05996932 -0.21549961 0.22606216 0.5367654
-0.08777104 0.05092221 0.29106173 0.105409294 0.4074455 0.11423885 -0.13676366 -0.04798014
0.32838273 0.2776085 0.04476607 0.015147747 -0.021823741 0.33042145 0.1411598 0.21482493
0.16714352 0.19752902 0.13695608 -0.04234894 0.547857 0.21291406 0.49506134 -0.123574555
0.22655237 0.60370356 0.16984607 0.15505105 -0.019757815 0.28158212 0.16338412 0.1959295
-0.05129147 0.30724478 0.11281779 0.22538489 -0.1293375 -0.0034637398 0.058619108 0.15760165
0.11591039 0.038813423 0.17756234 -0.13494556 -0.020899639 0.07454122 0.05930232 -0.5218357
-0.21020022 -0.0977935 0.39301318 0.2868602 0.109683655 -0.29373702 -0.22777094 -0.5544788
0.104855806 0.22899148 -0.062639385 -0.15240307 -0.0128801465 -0.59496415 -0.038292248 -0.018185234
-0.12596232 -0.09935824 0.10877444 0.2086899 0.14296708 0.17189287 0.17279711 0.000886581
-0.18646865 -0.14931029 0.25607014 0.07566036 0.18990031 -0.38530347 -0.52247846 0.27616096
-0.24622267 0.19960749 0.061863437 -0.3459456 0.07947931 -0.3583685 0.394675 0.41407046
0.12042813 -0.117734894 0.2823397 0.23849776 -0.0592043 0.116759315 0.12948462 0.3509118
0.17077991 0.37728047 0.10754396 0.2698565 -0.060231764 0.040975463 0.15752342 -0.0016045271
0.006769719 0.27109048 0.07735636 0.01915183 0.34275568 0.34923768 -0.09481329 0.21327357
0.16537242 -0.12104475 0.37345275 0.25446805 -0.070861846 0.08242801 -0.09819968 0.34076038
0.12311358 0.20239761 0.21392016 0.11655073 -0.18507946 -0.057243098 0.20992152 0.2744235
0.39656448 0.09249242 0.23962204 0.16432475 0.21114312 0.24700582 -0.070559405 0.29543123
0.17898768 0.10736225 -0.049080953 0.18172194 0.42714632 0.07252641 0.2618774 0.14755367
0.20293665 0.24905053 0.068504415 0.09967375 0.014762324 0.22243996 -0.19135883 -0.07775331
0.20096834 0.16879633 0.22262852 0.16970411 0.124078795 0.06940405 0.2680966 0.28399932
-0.008195166 0.014931158 0.08202422 0.21592006 0.13693881 0.1216923 0.07266806 0.03766326
-0.039195772 0.10304168 0.15613009 0.19995292 0.3837396 0.07551204 0.070739396 0.04176344
0.15770385 0.43604526 0.1466801 -0.045701977 0.2921543 0.036845002 0.0145061035 0.14277034
0.20944938 0.21201798 0.05058615 0.232731 -0.06256638 -0.049239308 0.45269975 0.07330037

encoder.2.bias f4 [25]
00000000: 031d a3bd 2681 3a3e 0a4a 74bf 69f3 893e
00000010: 90e5 943d 9c92 db3d ca4c 4f3d 6b28 043c
00000020: 05af 0a3e ca6f 333d c034 e83c eb24 a33e
00000030: b74b 1c3e 7582 b9bb e431 ea3d 77ed 98bd
00000040: 15e9 283e 6bf6 433e 6089 02be 490b b53c
00000050: cbb9 2cbf 00cd 4d3e a38d f93d 4a03 ec3d
00000060: 3c7d 383d
-0.07964518 0.18213329 -0.95425475 0.2694352 0.07270348 0.10721323 0.05061034 0.008066277
0.13543327 0.043807782 0.028345466 0.31864104 0.15263258 -0.0056613036 0.11435297 -0.07467168
0.16495164 0.1913697 -0.12747717 0.022100108 -0.67471 0.20097733 0.12185218 0.11524065
0.045041308

encoder.4.weight f4 [5, 25]
00000000: 4024 0e3e ab44 6d3d dae9 7dbe c477 a43e
00000010: 9179 0c3e 4021 343e 14a4 97bd 432d 8cbe
00000020: 437b 253e 89da b53e f71a f23d 29e6 9abe
00000030: 772f 8dbe 9287 9abe 6007 b13e 93fe a03e
00000040: 1681 6e3e 9ed0 963e 0e3e 083e 260b f7bd
00000050: ab09 403e c032 d03d b0d7 903e d31c 9d3d
00000060: ae3c a83e d060 b3bd fb59 083e b6fb 42bf
00000070: 8a6e 813e 4871 943e 93b2 a63e c05f 223d
00000080: ff0b 063f 599d 433e fe94 6d3e 827d a63e
00000090: 3c1e 7e3e 4543 ed3e e48e 42be aa9a a3bd
000000a0: 9625 39be a7e9 a33e ab87 e13d d28a 44bd
000000b0: 3e5d 823d 4576 54be 3a08 23be d84d 41be
000000c0: a98d 973e f7ec 60be d9b1 b7bc 95e4 a63e
000000d0: 1123 0c3f 745d acbd 110b bebd 074c 09be
000000e0: eaca 863e 4f1c 62be d76a 1cbe 4f22 413d
000000f0: fc8e 32be 384f 0b3f f987 f0bb b36f 9c3c
00000100: c538 01be a2c1 1bbd 044e 23be 32e4 ecbd
00000110: c25a f63d 8885 df3e 43e6 fa3e 0f04 36be
00000120: 5f61 b73e 028b 7c3e 3df4 eb3d 3aab 9a3d
00000130: a7d1 56bd e8c8 b13c 90e3 173e e611 833c
00000140: fee4 5a3d 60fb 8bbc 35e3 243e 8d74 093e
00000150: 04c9 44be a4d6 02be 9cf6 293e 242d 1cbe
00000160: 69df 2abe 0ef7 8d3d e02b 43be 2184 f8bd
00000170: ed6d 47be 520d 12be aec8 53be 108b e0bd
00000180: c596 2ebe 4166 3c3e 4358 ab3d ea95 bbbd
00000190: f4f6 85bd 6d77 a33e 02e3 133e 586f c9bd
000001a0: c5d7 193e 6752 fbbd d13a ca3e db15 bcbd
000001b0: d4ec 693e 7ac4 8ebe efd1 713e f839 bdbd
000001c0: c638 b2bd c496 903e f25d 8fbd e7fa 523e
000001d0: 0673 ff3d 4af5 45bd ef75 0b3d 3ef5 f63d
000001e0: e3fe 02bf 8f37 e33e d8e5 07bd 756c d13e
000001f0: 38a5 013d
0.13881016 0.057926815 -0.24796239 0.32122624 0.13718249 0.17590809 -0.07404342 -0.27378282
0.16160302 0.35518292 0.118215494 -0.30253723 -0.27575275 -0.30181557 0.3457594 0.31444225
0.2329143 0.29456037 0.13304922 -0.12062673 0.18753688 0.1016593 0.28289557 0.076715134
0.32858795 -0.087587 0.13315575 -0.7616533 0.25279647 0.28992677 0.32558116 0.039642096
0.52362055 0.19102992 0.23201367 0.3251763 0.24816221 0.46340385 -0.18999821 -0.07988484
-0.18080744 0.320142 0.11012205 -0.047983952 0.06365441 -0.20748241 -0.15921107 -0.18877351
0.29600266 -0.21965395 -0.022423672 0.3259627 0.5474101 -0.08416262 -0.092794545 -0.13407908
0.26326686 -0.22081111 -0.15275131 0.04715186 -0.17437357 0.54417753 -0.007340428 0.019096231
-0.12619312 -0.03802646 -0.1594773 -0.11566962 0.120290294 0.43656564 0.490038 -0.17774986
0.35816476 0.24662402 0.11521194 0.0755219 -0.052446034 0.021702245 0.14832902 0.015999746
0.05344104 -0.017087638 0.16102298 0.13423367 -0.19217306 -0.12777191 0.1659798 -0.15251595
-0.16686787 0.069318876 -0.19059706 -0.121345766 -0.19475527 -0.14262894 -0.20682022 -0.10964024
-0.17049702 0.18398382 0.08366444 -0.09159453 -0.06541243 0.31927052 0.14442065 -0.0983569
0.15023716 -0.122715764 0.39497998 -0.09183856 0.22844249 -0.27884275 0.2361524 -0.09239572
-0.08702235 0.28240025 -0.070003405 0.20603524 0.12473111 -0.04832963 0.034048017 0.12058495
-0.51170176 0.44378325 -0.03317818 0.4090306 0.031651706

encoder.4.bias f4 [5]
00000000: 58d2 883e b7d1 223e c89f 413e fc97 19be
00000010: 8a81 c43d
0.2672298 0.15900312 0.18908608 -0.14999384 0.0959502

decoder.0.weight f4 [25, 5]
00000000: c4e6 da3e a7ae 133f 69fd a73e 3640 dabe
00000010: e3b7 56bf 0cde 053f 56f1 0fbe d5bc 543e
00000020: de8c a2be df2b 003d 65c9 073f 3e96 8bbc
00000030: fd1c 0dbf 18e1 c83e b216 b13e 294c 97be
00000040: 8a01 093f 403d de3e c8ac 8e3d dbf7 cf3e
00000050: 4417 0e3f 1738 033f aefe ab3e 60fe 57bd
00000060: 2c47 eebe a01c 8bbe 9089 743d 3c43 b4be
00000070: 9ca1 9a3e 6814 bfbe b4eb 9ebe 265e bd3e
00000080: d564 6cbf 7926 cdbd 238c c53e a48c 9dbe
00000090: 75c7 95be 2761 103f b352 f33d fe08 583e
000000a0: e014 ac3e e134 2c3f 99b2 ea3e bc92 da3d
000000b0: 3590 f7be 407b a83e f4f3 aa3d 854b 1cbe
000000c0: 6e3b 943e b3c7 13be acdd 003f e8ed c0bd
000000d0: 5b19 7a3d 3be3 d4be 712a 943d 8cbb ee3e
000000e0: 8fb2 8d3e 806f 023e f333 b1bb 7077 62be
000000f0: a67e a83d d299 623e d323 5dbf 3a82 dd3d
00000100: f901 d83d 765f 16be acd1 573e 63e6 99be
00000110: c904 893e fb29 c23e 8756 70bf 8dc9 bf3e
00000120: 0e6d 703e afaa 9abc 7483 1ebc 2baf 83bd
00000130: 5495 e6be b958 cf3e 0cce 8abd d865 383e
00000140: 4048 fd3e 61aa 8dbe 7c26 24bf e0d7 a6be
00000150: efb7 a03e 7576 4ebe 35f0 093f f13d 01be
00000160: e505 ce3e de84 f9bd 52cd 37be d3fe f53e
00000170: 1768 d5bd b20d eebc 8c36 b3bd 09f5 3c3e
00000180: dda9 8d3e 3731 efbd def2 683e 6d0a 513e
00000190: a053 94be 7868 1f3d 60b3 a3bc 4009 89bb
000001a0: ccbe 91be 2b23 ac3d c9a5 fb3e b805 2ebf
000001b0: d7f7 cc3e 1d85 fabd 6974 113e 6c79 cb3e
000001c0: a271 733e 119c e1bd b06c 82be 7c36 623e
000001d0: 6a03 febd 4e73 aebe f1eb 163e 1bd5 183f
000001e0: 5b08 0a3d be25 7fbe 44da 9dbe 0a78 a03e
000001f0: af9a b1bd
0.42754185 0.57688373 0.32810524 -0.42627114 -0.8387434 0.5229194 -0.14056906 0.20775159
-0.31748098 0.03129184 0.5304168 -0.017039414 -0.5512236 0.39234233 0.34587628 -0.29550293
0.53517973 0.43406105 0.06966549 0.40618786 0.5550425 0.5125746 0.33592743 -0.052732825
-0.46538675 -0.27170277 0.059701502 -0.35207546 0.30201423 -0.37320256 -0.31039202 0.36985892
-0.9234136 -0.10017104 0.38583478 -0.30771363 -0.29253736 0.5639824 0.11881008 0.2109718
0.33609676 0.67268187 0.45839384 0.106725186 -0.4835221 0.32906532 0.083473116 -0.15263183
0.2895159 -0.14431648 0.50338244 -0.09420377 0.061059337 -0.41579613 0.072346576 0.46627462
0.27675292 0.12737846 -0.005407804 -0.22115874 0.08227281 0.2212899 -0.8638279 0.10815854
0.10547251 -0.14684853 0.21076077 -0.30058584 0.26761463 0.37922654 -0.9388203 0.3745846
0.23479101 -0.018880216 -0.009674896 -0.06429895 -0.45035803 0.40497378 -0.067775816 0.180076
0.49469185 -0.2766905 -0.6412122 -0.32586575 0.3139033 -0.20162375 0.5388215 -0.12621285
0.40238872 -0.121835455 -0.17949417 0.48045978 -0.10420244 -0.029059265 -0.08750638 0.18452848
0.27668658 -0.11679309 0.22748896 0.20414133 -0.2897005 0.03891799 -0.019982994 -0.004182011
-0.2846588 0.08405145 0.49149922 -0.67977476 0.40032837 -0.122324206 0.14204563 0.39741075
0.23773816 -0.110160954 -0.25473547 0.22091097 -0.12402995 -0.34072345 0.14738442 0.59700173
0.033699375 -0.24916741 -0.30830586 0.31341583 -0.08672082

decoder.0.bias f4 [25]
00000000: 7d9d b1be 2453 d93e c61a c0be 89a2 b93e
00000010: b22c c2be 8fee c5be 9328 0e3f 400d ebbe
00000020: c33e dcbe 385f 41be c056 1abe 3771 5f3f
00000030: 1f3a 6b3e f8c0 eb3e 05bb cb3e a9f4 25bf
00000040: b077 053f 26c6 e8bc c469 823e 1553 3ebf
00000050: c665 c1be 3a6d 163f 1c59 a23e 2e8c 7b3e
00000060: 1d56 0d3f
-0.34690467 0.42446244 -0.37520427 0.36256817 -0.37924725 -0.38658568 0.5553066 -0.45908546
-0.43016633 -0.1888398 -0.15072155 0.8728213 0.2297139 0.4604566 0.39791122 -0.64826447
0.52135754 -0.028414797 0.25471318 -0.74345523 -0.3777296 0.58760417 0.3170861 0.24565193
0.55209523

decoder.2.weight f4 [50, 25]
00000000: df06 7a3d aa8d 7e3d 0424 043e fba5 473e
00000010: d327 c23d 0a80 9ebd 2d3a eb3c bf7b 42be
00000020: d764 023c bf12 76be e6a4 02be 09f9 c63a
00000030: 5151 46bd 278c 813e edb6 47be ec6c 74be
00000040: aa1e 10be ee9c b73d c26e 8f3e f7b5 74bd
00000050: ca6e fc3d 7427 143e f01a cb3d 8478 053e
00000060: 40dc 6abd c07e 0bbe ba98 f8bd 5a59 bd3d
00000070: 3c66 8fbb b73b 07be b16d 0e3e e674 3ebe
00000080: a1c6 d1bd a032 b5bc 090c 213e a01e 75bd
00000090: 4eb5 2e3d 9774 133e 84b4 78bd fdd4 e13c
000000a0: eca6 4cbc 2608 1fbe 9525 653c dc57 2cbd
000000b0: 2d8d ee3c 98d4 49bd 507b 40be 42cb d53c
000000c0: aa1c 45bd 3e7c 9e3d 98aa 50be 33f9 07bd
000000d0: 1e39 9abd 61f8 80bd a9a1 b53d 77ab c0bd
000000e0: 2f61 623e d1f9 31be 3595 a4be 1987 2c3d
000000f0: 8d50 58be 03b3 ec3d 71d3 ab3e 1b5f 383e
00000100: e25a b23e e492 fdbd 270e e03e 46a7 07be
00000110: a4f7 38bd d419 46be 88bf 3cbd 344f 903e
00000120: c293 4b3e e230 843e bf9b 883e 6790 47bd
00000130: 075b 47bd 3432 083d 56fd 913e b124 913b
00000140: 8ab3 8c3d f53a ec3d bd8f d13d 91f3 c83d
00000150: dc72 babe 6369 abbd c3a9 71be c67d a33c
00000160: eec0 4b3e e30e 863e 2778 00be 0018 ac3d
00000170: 0ee2 a13e af00 ba3d cb45 363e da34 dabd
00000180: ac39 2bbe 0b8c 0c3d 5cf4 453e b59d 0dbe
00000190: e06e 4e3b cb59 bdbd 8e25 25be 88a3 423e
000001a0: e159 b4bd 8f1a 2dbe 7e9e 2bbd d578 a5be
000001b0: f359 af3d 21af 4dbe 4f5d 8e3c 4285 5d3d
000001c0: 6633 9ebc 0fc0 263e 540d ea3e a31b 91be
000001d0: 0c3f 133c 48e9 a2bd 67dd 803e a0ea a13d
000001e0: 32fc 03be 3eec 833e 5c93 953e 8dab 01bc
000001f0: 58fb 9b3d d1fb 583e 0987 01bf 1213 d0be
00000200: 85ce c03e 8b83 a5be 10f3 b9bc beeb b93e
00000210: fb7d 3fbe 9cd8 86be 5470 41be 15e9 c0be
00000220: 1612 23bd 605c 873e f18a 5f3e c846 f83e
00000230: a8bf 193d 29cd 2cbf 93a0 003f 866a fd3e
00000240: 8080 09be 10df 46be b484 413e 59db 0c3e
00000250: ea39 67be 7366 0e3e 9863 113d 8cdb 37be
00000260: 80b3 b13d 0157 d1bb 182b 48be c35f cdbd
00000270: ab32 e2bc 8e3f 9e3d 5824 22be f600 13be
00000280: 51e2 163e 08ef f63d 12ae 08be 84b1 45be
00000290: d0b3 8cbd 80b4 8bbd 4807 23bc 2813 ba3c
000002a0: bd6b 15be 11ff ef3d 0008 43be 403b e43c
000002b0: 053d 24be 5597 3ebe 30c8 eabc 60f7 87bd
000002c0: 53c5 dfbd e540 2f3e 170b b8bd 2651 25be
000002d0: 755c 0a3e 9f60 3a3d 64d9 40be 280f 11bd
000002e0: e49a 62be 391d 7abe 0625 723d 4916 bd3e
000002f0: 63f0 90bc aef6 313e e401 18be ea3a 713e
00000300: 0411 853e 5aba 34bd 4674 493c da71 923d
00000310: febb b03e 26cf 373e cb89 4b3e bfda 333e
00000320: f926 87be 9482 0a3e f9d5 083e f8f3 173c
00000330: 2373 83be 0f62 0b3e 5a5a a73e 97eb ecbc
00000340: d0a1 813d 4fa2 a7bd f817 6ebe 50ee df3d
00000350: b8bf b43e 7e5e ffb8 e8df 933c e7b5 71be
00000360: 1579 213d 8984 e03d f4eb 203e 365e 5fbe
00000370: ec6b 0ebd 5a32 3f3e 097e 463e 7986 263e
00000380: ea15 dc3d 5818 853e cce1 f33d 2c93 7f3d
00000390: 87a3 08be 7243 b73e 2283 863d e089 87be
000003a0: ff87 b13c 5301 8c3e 770a c13e 4082 a5bd
000003b0: c5a9 333e 1c54 c33e 435d bbbd bd3d ad3e
000003c0: 1536 36be 9bb0 763d 1af7 51bd 09d6 98bd
000003d0: fcc3 12bd c594 3abe 9db8 653e f5d2 aa3e
000003e0: 4e87 a5be 7113 653e 2259 c43e 2ed7 b03d
000003f0: 89e4 ff3c aea9 02be 06fc 8b3e c23c 843d
0.06104171 0.06214682 0.12904364 0.1949691 0.09480252 -0.07739265 0.028714264 -0.18992518
0.007958612 -0.24030589 -0.12758216 0.001518042 -0.048417393 0.2530224 -0.19503374 -0.23869675
-0.14074197 0.08965479 0.2801419 -0.059743848 0.12325819 0.14468175 0.09917247 0.13034254
-0.057338953 -0.1362257 -0.12138505 0.09245558 -0.004376201 -0.13206373 0.13909031 -0.1859928
-0.102429636 -0.022118866 0.15727247 -0.05984366 0.042653374 0.14399944 -0.060719028 0.027567381
-0.012490969 -0.15530452 0.013986011 -0.042075977 0.029120052 -0.04927501 -0.1879704 0.026097897
-0.04812304 0.07738541 -0.20377576 -0.03319664 -0.075304255 -0.062973745 0.08868725 -0.09407704
0.22107385 -0.17380454 -0.32145086 0.042121027 -0.21124478 0.11557581 0.33559754 0.1800503
0.34834963 -0.12381533 0.43760797 -0.13247404 -0.045158044 -0.1934579 -0.046081096 0.28185427
0.19880584 0.25818545 0.26681325 -0.048721697 -0.048670795 0.033251002 0.28513592 0.004429423
0.06870182 0.11534683 0.10232494 0.098120816 -0.36415756 -0.0836971 -0.23599915 0.019957434
0.19897816 0.26183233 -0.12545834 0.08403015 0.3161778 0.09082162 0.17800061 -0.10654612
-0.16721219 0.034313243 0.19331497 -0.13829692 0.0031499192 -0.09245642 -0.16127607 0.19007695
-0.088062055 -0.16904663 -0.041899197 -0.3231875 0.08562078 -0.20086338 0.017378477 0.054082163
-0.019311618 0.16284202 0.45713294 -0.28341398 0.0089871995 -0.07954651 0.25168917 0.07906079
-0.12889174 0.25766176 0.2921399 -0.007914436 0.076162994 0.2118981 -0.5059667 -0.4063955
0.37657562 -0.32326922 -0.022698909 0.3631267 -0.18700401 -0.26337135 -0.18890506 -0.37677827
-0.03981217 0.26437664 0.21830346 0.48491502 0.037536293 -0.6750055 0.50245017 0.49495333
-0.13427925 -0.19421029 0.18898278 0.1375555 -0.22580686 0.13906269 0.03549537 -0.17954844
0.08676815 -0.0063885455 -0.19547689 -0.10028031 -0.027612051 0.07726966 -0.15834177 -0.14355835
0.1473477 0.1205731 -0.13347653 -0.19305998 -0.06870234 -0.06821537 -0.009950466 0.022714213
-0.1459188 0.11718572 -0.1904602 0.027860284 -0.16038902 -0.18612416 -0.02865991 -0.0663898
-0.109263085 0.17114599 -0.0898649 -0.16144237 0.13511832 0.0455023 -0.18832928 -0.035414845
-0.22129399 -0.2442521 0.05911734 0.36931065 -0.01769275 0.17379257 -0.14844471 0.2355763
0.25989544 -0.04412303 0.012295788 0.07150622 0.34518427 0.17950115 0.19876783 0.17563914
-0.2639692 0.13526374 0.13362874 0.009274475 -0.2567378 0.13611625 0.3268612 -0.028920932
0.063296914 -0.08185255 -0.23251331 0.109341264 0.3530252 -0.00012176948 0.018051103 -0.23604546
0.039422113 0.10962779 0.15715009 -0.21813282 -0.03477089 0.18671551 0.19384016 0.16262235
0.10746367 0.25995135 0.11908302 0.062396213 -0.1334363 0.35793644 0.0656798 -0.26472378
0.021671293 0.2734476 0.37703297 -0.08081484 0.1754523 0.38150108 -0.09148648 0.33836165
-0.17794068 0.060227018 -0.051261045 -0.07462699 -0.035831437 -0.18220814 0.22433706 0.33364072
-0.32329792 0.22370698 0.38349253 0.08634792 0.031236904 -0.1276004 0.27340716 0.06456901

decoder.2.bias f4 [50]
00000000: b1f2 a93e a191 aabc f8a3 d83e bfe5 e3be
00000010: 694d 4d3e 29fc 623e eea1 a1bd 6afb e73e
00000020: ca94 073e 6683 00be 5ea4 bc3d 2fa1 9bbe
00000030: 0ff7 233e 881e af3e bebb 81be 150b eebd
00000040: 4711 28bc 5b98 2cbe 2ec3 9c3e 3f4d 4bbe
00000050: f892 86bd 4e38 183e bc29 50bd b0b5 4cbe
00000060: 0de2 17be cf52 1e3f 5836 dc3e 0d62 8d3c
00000070: b1ee 543e df6c 8abe d76b 0d3e 2afc 003e
00000080: bf80 d43d 282e e3bd cd01 113e 7b36 b23d
00000090: 7941 a63d 8fec 47be 9eb8 073f 6727 ca3e
000000a0: bf68 bb3e f0b6 173f 779a ff3e b9e7 cbbb
000000b0: 5f1f f93c 2400 62bc edae 433e 23ea 333f
000000c0: 8581 393f d7f8 8d3d
0.3319297 -0.020821394 0.42312598 -0.4451122 0.20049061 0.22166504 -0.07892214 0.45309
0.13240352 -0.12550125 0.09211038 -0.3039641 0.16012214 0.3420298 -0.25338548 -0.116232075
-0.0102580255 -0.16854994 0.3061766 -0.19853686 -0.06571001 0.14865229 -0.05082105 -0.19991183
-0.14832325 0.61845106 0.4301021 0.017258668 0.20794179 -0.27036187 0.13810669 0.12596193
0.10376119 -0.11092788 0.14160843 0.087017976 0.08117957 -0.19523834 0.5301608 0.39483187
0.36603352 0.59263515 0.49922535 -0.006222692 0.030410467 -0.013793979 0.19109698 0.7027914
0.72463256 0.06932228

decoder.4.weight f4 [100, 50]
00000000: 897b 13be ae99 00be 0cd0 ec3d 94d4 76be
00000010: 3290 093e 2ef3 7e3e 489f e83d bf45 7a3b
00000020: fae2 60bd f386 1c3d ef6a 3f3e 7110 583d
00000030: eaf7 393e 2e5f 113e 94ea 2bbf a77b 2abe
00000040: 9723 54bf b223 183d 2563 ef3d fd56 033e
00000050: 221f 4b3e 73e0 aebe 56e6 47bd dc88 023e
00000060: 5de6 37bc 0f03 853d 7c75 f7bd d980 913d
00000070: a3c6 56bd ff8f 46be 123a a0be 2ad6 1f3d
00000080: 1b05 babe 8cc2 1abf 7e93 563d 2770 8c3c
00000090: a063 bfbd 2458 79bd a0d7 1b3c 102a cdbe
000000a0: 5ba1 c4be 6541 7e3e 0de8 a4bd 7ed7 7ebd
000000b0: c017 35bd a41b a2bd 2ce4 06be 059b c43d
000000c0: bf85 bebd 591d fbbe 9080 46be 2aed 573d
000000d0: 591f 4c3e eb59 1dbe f48e 0c3e 9d3c 773e
000000e0: 8ded b6bc 899a d93d 031c 9cbd cebe b8bd
000000f0: 123a 16bd a4c9 813d f71e 873e 7f23 6bbd
00000100: e343 15bf df7b 25be 0ed7 2bbf 7a46 9cbd
00000110: 56af 82bd 7013 39bc 0022 563e 5e79 69be
00000120: 9de1 b63c 9455 cdbd 1e81 0b3c a32d 11be
00000130: e7d2 563d 9ada e73d fe0b 4abd d757 7dbd
00000140: cad0 55be fe9f 923d 81c7 0dbf 54ff 10bf
00000150: decb 69bd 3497 ab3d 2670 c43d 8aed d43d
00000160: ab39 8fbb 4e02 f9be 2686 9bbe 33b3 4f3e
00000170: 6cae f83d 6bc9 52be 03b8 cbbc ad37 b23d
00000180: 3a32 a83d 8d02 02bc a8ac c03c a2a8 5abf
00000190: 47d7 0ebc 972c 58bd 54bc 353e d0d7 1dbe
000001a0: b107 8dbc a75e bd3e 1e48 ccbd 1da5 ee3d
000001b0: cc76 3dbe 32c2 28bb 80ed 263e aa9a cd3c
000001c0: 8e7d e73d ee71 103d 2809 01bf 8ac4 2abe
000001d0: ee27 57bf 9842 ec3d 4c71 9e3d 4a0d 953d
000001e0: e79d a73d 9364 aebe 71f1 e0bd 35e6 983d
000001f0: 636e a23d ba33 fa3d cec5 cb3c b839 fcbd
00000200: 20cf 23bc 8643 9a3c cfc6 1ebe 0f8f 93bc
00000210: 0361 d9be 8da8 13bf 3a0f a8bd c8a2 a7bd
00000220: 86f8 873d 6dce 0cbe 5966 51bd cb7b 02bf
00000230: 4991 c7be b3ea c33e 4dfc 303e 9fed dbbd
00000240: 041f 4f3c 24ff 03bd 0451 06bd 0b2c 2cbe
00000250: 54c3 29be e7f4 48bf 7a76 75ba 3645 8c3d
00000260: 3b63 333d 1bdf 3cbe eec5 45bd 1a86 bd3e
00000270: 944e c63d 4c82 68bd e301 1ebe 239b db3d
00000280: 384f 843d 0438 ee3d 6344 643e d4b7 263e
00000290: 0a8f 0fbf 788a 79be 88dd d2be 1bf9 45bd
000002a0: 27a2 f13d 7ca2 81bd 8883 353e 7bb1 9fbe
000002b0: 09be eebd 6f95 a0bd 5c70 353d 27ca 0dbb
000002c0: 1338 fdbd cc88 023e 7501 0ebe 963b 753c
000002d0: df8d 98bd ecc5 1d3c 01bc 04bf 8388 d5be
000002e0: 63cc 713d b46b 06be dd66 56bd d06a 093d
000002f0: 5a9e 7f3d 2f1a cabe 0532 94be b3e8 ab3d
00000300: e274 c73d 7184 fc3c d312 d4bd cf81 25bd
00000310: 0697 5bbd eb7d 32bd e5d9 45be eadf 95bf
00000320: 39e9 2fbe ab2d 98bd 812a 3f3e da7b b7bd
00000330: f0f7 14be 7842 cf3e 8b67 983d bc59 26be
00000340: c4a8 49be 95f5 c23c 36f4 ea3d ba8d ee3d
00000350: e41f c53d 1471 1c3e 9f90 babe 1389 82bd
00000360: 24ab 25bf c9b8 d23d 55f9 92bd 2eca 5abd
00000370: 2f65 913d 1429 a5be b643 d0bd e6c7 10bc
00000380: f075 4f3e 58b6 b83d 50c7 b73c 7b84 e33d
00000390: 828b bf3d 188d b6bb 4adf a2bc acae 2bbc
000003a0: 74e8 abbe f85a f2be 04aa 08bb f948 b8bd
000003b0: b8fd 813d aa47 8f3d 1c58 1abe 9990 9cbe
000003c0: c99d cbbe 19b1 7e3d cbc5 ce3a e065 d9bd
000003d0: 8278 31bd 8144 aebd 9cff d1bd 5149 2a3d
000003e0: e126 0ebd 37af 92bf 8008 cdbd 8646 d5bd
000003f0: 9de5 23be fd3a 07be 5f4c fe3a 9d71 c33e
-0.14402594 -0.12558624 0.11563119 -0.2410453 0.13433912 0.24897453 0.113585055 0.0038188545
-0.05490396 0.038214635 0.18693136 0.052750055 0.18160978 0.14196464 -0.6715481 -0.16648732
-0.82866806 0.037143417 0.11688832 0.12826152 0.19836095 -0.34155616 -0.04880365 0.1274752
-0.0112243565 0.06494724 -0.12082955 0.07104654 -0.05243553 -0.19390868 -0.31294304 0.039022602
-0.3633202 -0.60453105 0.052386753 0.017143322 -0.09345174 -0.060875073 0.009511858 -0.40071154
-0.38404354 0.24829634 -0.08052073 -0.062217228 -0.044212103 -0.07915428 -0.13172978 0.0959988
-0.09302854 -0.49045828 -0.1938498 0.05271641 0.19933833 -0.15366332 0.13726407 0.24144216
-0.02233007 0.10625178 -0.0762253 -0.09020768 -0.036676474 0.06337288 0.26390812 -0.0574069
-0.5830671 -0.16160534 -0.6712502 -0.0763063 -0.06381099 -0.011296138 0.20911407 -0.22800204
0.022324378 -0.10026088 0.008514671 -0.14177565 0.052447226 0.11320992 -0.049327843 -0.06185135
-0.20880428 0.07159422 -0.55382544 -0.566396 -0.05707919 0.08378449 0.09591703 0.103968695
-0.004370888 -0.4863457 -0.30375785 0.20283203 0.12142643 -0.20584647 -0.024868017 0.087020256
0.08212705 -0.0079351785 0.023519829 -0.85413563 -0.008718318 -0.0527769 0.17747623 -0.15414357
-0.017215582 0.36986277 -0.09974693 0.116525866 -0.18502349 -0.0025750515 0.16301537 0.025098164
0.113032445 0.0352649 -0.50404596 -0.16676536 -0.840453 0.11536139 0.077364534 0.07277925
0.08184414 -0.34061107 -0.10983551 0.074657835 0.07931211 0.12216897 0.024874594 -0.123156965
-0.009998113 0.018831026 -0.15505527 -0.018012552 -0.42456827 -0.57679063 -0.08206029 -0.08185345
0.06639199 -0.1375062 -0.051122997 -0.50970143 -0.3897803 0.38265 0.17283745 -0.10738682
0.012641672 -0.032225743 -0.032792106 -0.16813676 -0.16578418 -0.7849869 -0.00093636627 0.068491384
0.043795805 -0.18444483 -0.048284464 0.37016374 0.09682956 -0.056764886 -0.15430407 0.10722949
0.06460422 0.11631778 0.22291712 0.16281062 -0.56077635 -0.24369228 -0.4118464 -0.04833327
0.11798506 -0.063298196 0.17725956 -0.31190094 -0.1165734 -0.07841002 0.044296607 -0.0021635385
-0.12364211 0.12747496 -0.13867743 0.01496782 -0.07448935 0.009629708 -0.5184937 -0.41705713
0.05903281 -0.13127023 -0.05234419 0.03354913 0.062406875 -0.39473101 -0.28944412 0.08393993
0.097390905 0.030824872 -0.10355153 -0.040407 -0.053610824 -0.043577116 -0.19321401 -1.1708958
-0.17178811 -0.074305855 0.18668558 -0.0895917 -0.14547706 0.404804 0.07441624 -0.16245168
-0.19693285 0.023798743 0.11472361 0.11648126 0.09625223 0.15277511 -0.36438462 -0.06373801
-0.64714265 0.10289151 -0.071764626 -0.05341547 0.07099377 -0.32257903 -0.10169165 -0.008836722
0.20259833 0.09019154 0.022433907 0.11109253 0.09352781 -0.005571019 -0.019881863 -0.010478657
-0.33575785 -0.4733503 -0.002085329 -0.089982934 0.06347221 0.06996091 -0.15072674 -0.3057907
-0.39768818 0.062180612 0.00157755 -0.10615134 -0.043327816 -0.0850916 -0.10253832 0.041573826
-0.034705047 -1.1459721 -0.10011387 -0.10413842 -0.1600556 -0.13206096 0.0019401422 0.38172618

decoder.4.bias f4 [100]
00000000: 6ada 103e 6d03 4a3d fee8 5f3d 9668 b2bd
00000010: 2012 983c 6d07 20bd 2bd9 9ebd 057d f9bd
00000020: a44a b6bc 692a 4abc 095f e73a c0be 82be
00000030: 4b9d c7be 69d8 e6be b460 e4be 8071 2abd
00000040: d1a6 50be 322e 81be 6147 80be 980d 31be
00000050: 002f 12be 934e ef3c d375 833e 40da 053d
00000060: 0232 bc3d e9a4 eebd bbba 32bd b8d0 66be
00000070: 7677 a5be 8805 94be d2cb 5bbe 3761 c6be
00000080: 153c 95be c42f 48be a719 52be c057 3bbd
00000090: 9831 9bbd f69c 2bbc 0886 1f3d fa75 203e
000000a0: 4664 243e d1fc 73bd 1cba b23d e7d5 27bd
000000b0: 1171 27be bf4f 97bd 7125 5dbe 69b0 f5bd
000000c0: 6028 4abe cf71 b9be be5f 99be ed20 06bf
000000d0: b188 dbbe 8c66 35bf 6850 06bf 9934 06bf
000000e0: 5a6b 10bf 8660 afbe a758 dcbe 4bb6 c5be
000000f0: 9f73 fdbe 41d5 d2be c6a6 c8be 2e11 e2be
00000100: c456 933b ec12 b3bd 8e39 843c cbe9 5a3e
00000110: a2df 153e a85f 9fbd 00b8 1abe d47a 0cbe
00000120: 774c 27be 0e34 d3be 447e fcbe 907f 11bf
00000130: 91eb 02bf 54a0 f0be 4cff 19bf 25eb 07bf
00000140: 4540 dabe 2862 19bf 7630 adbe 6d04 c5be
00000150: 74f4 80be 060b 80be c993 45be 7bc3 853d
00000160: ddd5 8abe be33 a8be 0b8a 66be 347d 08be
00000170: 9161 efbd d8d8 87be aa2b c7be 49eb 96be
00000180: 6223 fbbc 7969 503d db8e a23d f1a2 053d
0.14145818 0.049319673 0.054665558 -0.087113544 0.01856333 -0.03906958 -0.07756265 -0.12182049
-0.022252388 -0.012339213 0.0017652224 -0.25536156 -0.38987193 -0.45086983 -0.4460503 -0.04161215
-0.20376135 -0.25230557 -0.25054458 -0.17290342 -0.14275742 0.029212272 0.2567583 0.032678843
0.09189226 -0.11652548 -0.04363511 -0.22540557 -0.32317704 -0.2891047 -0.2146447 -0.38746044
-0.291474 -0.19549471 -0.20517598 -0.04573798 -0.07577819 -0.010474434 0.03894618 0.15670004
0.16053876 -0.059567276 0.08726904 -0.040975478 -0.16351725 -0.07388257 -0.21596314 -0.11996538
-0.19741964 -0.36219642 -0.29955858 -0.5239399 -0.42877725 -0.708596 -0.5246644 -0.5242401
-0.56413805 -0.3425333 -0.43036386 -0.3861564 -0.49502274 -0.41178325 -0.39189738 -0.44153732
0.0044964273 -0.087438434 0.016140725 0.21378247 0.1463609 -0.07781917 -0.15109253 -0.1371873
-0.16337763 -0.41250652 -0.49315083 -0.5683527 -0.51140696 -0.4699732 -0.6015518 -0.5309318
-0.4262716 -0.599154 -0.33826035 -0.3847994 -0.25186503 -0.2500841 -0.19294657 0.065314256
-0.2711629 -0.32851976 -0.22513597 -0.13329011 -0.11688531 -0.26532626 -0.389005 -0.29476383
-0.03065652 0.050881837 0.07937404 0.032626096
