cvae_model.pth (torch, 57286 bytes, 14 tensors)

fc1.weight f4 [50, 101]
0.23490204 0.2061002 0.06500849 0.09934625 -0.0029337986 0.10938528 0.019576406 0.06459618
0.09973161 0.057705488 0.09089351 0.115108415 0.024077727 -0.011161287 0.024297567 0.10486476
0.053722575 0.078802496 0.029036384 0.025964899 0.12945391 0.07758119 0.095222056 0.019324472
0.10999728 0.13465096 0.010507897 0.036196742 0.12089472 -0.06709206 0.05782752 0.09933833
-0.006792532 0.101105355 0.05806907 0.1292461 0.042941213 0.06000752 -0.010144811 -0.016617907
0.09789654 0.07581074 0.12061454 0.07177191 -0.019254783 -0.049587958 0.0077199284 -0.039157774
0.07115947 -0.038042884 -0.035996534 -0.1391951 0.011083111 -0.13432617 -0.17747834 -0.046608776
-0.060828213 -0.14108258 -0.14155921 -0.075228706 -0.14161839 -0.19871266 -0.18736544 -0.06655221
-0.0094618695 0.018312048 -0.12274651 -0.08289689 -0.01131117 -0.085454576 -0.014190467 -0.04604903
-0.048623346 -0.021684535 0.07221253 -0.06163947 -0.03431121 0.008098341 0.05176921 0.009097294
-0.026898885 0.07824905 0.020813072 0.09044498 0.09021584 0.06857219 0.0909137 0.016450189
0.07179197 0.04277213 0.1384908 0.1981915 0.20242274 0.206186 0.22993831 0.13688466
0.2567593 0.35430124 0.28423354 0.22164118 0.106199175 0.02689841 -0.012373309 -0.0209497
-0.061942704 -0.19538301 -0.101790704 -0.13423994 -0.13041422 -0.24748921 -0.20239592 -0.1338657
-0.11001818 -0.040953077 -0.012186386 0.06433582 0.09154834 -0.0071416823 0.15702526 0.16091923
0.07664932 0.08343722 0.06127996 0.05972585 0.017451752 0.09491914 0.0134744765 -0.02068232
0.037922826 0.044926435 -0.0771653 -0.01774766 -0.046967667 0.06331465 0.05434312 0.0928105
-0.021749347 -0.0076163467 -0.073507436 -0.084912844 -0.13215965 0.020613357 -0.044316914 -0.05092434
0.030657038 -0.031113075 0.06544916 -0.10056233 -0.061738387 0.0049219877 -0.015977219 -0.16686364
-0.02301574 -0.030318541 -0.08993092 -0.18498306 -0.18924215 -0.067093395 -0.20682034 -0.07783527
-0.17565598 -0.18670546 -0.06082801 -0.09618382 -0.082637675 -0.09463931 -0.079817325 -0.107456334
-0.12421761 -0.120213225 -0.13661826 -0.18232079 -0.25856167 -0.3360104 -0.2731428 -0.25749052
-0.21475121 -0.31923816 -0.34607342 -0.33689192 -0.46056786 -0.47547022 -0.54043144 -0.46365005
-0.5083876 -0.6260117 -0.5106484 -0.4802417 -0.6011135 -0.42051917 -0.3649541 -0.34247074
-0.22861715 -0.30412754 -0.15043814 -0.045900624 -0.04888316 -0.025280848 0.0603334 0.13637508
0.15203388 0.023362065 -0.051206443 -0.056582835 -0.061868448 0.04473187 -0.010730572 0.01986852
0.052042052 0.078141704 -0.04528216 -0.021323634 -0.057169043 0.058801167 0.06412907 -0.027538834
-0.058792744 0.06652653 -0.0061474023 0.009508853 -0.042723224 -0.099322826 0.019802555 -0.05722066
-0.019139512 0.0085053295 0.09026545 0.04105688 0.060709853 -0.056585103 0.066311836 -0.053078644
0.012703064 -0.03425595 0.08048486 0.016387634 -0.016517194 0.07018499 0.044887092 0.072567776
-0.045400046 -0.03642601 -0.08270959 0.08722882 -0.030294975 -0.05897519 0.07892501 -0.059982695
-0.03979392 0.040318232 -0.030374179 -0.094615795 0.038115725 -0.07340345 0.055534784 -0.032492522
00000000: 298a 703e ee0b 533e 2c23 853d 0c76 cb3d
00000010: f944 40bb 6405 e03d b35e a03c 014b 843d
00000020: 1640 cc3d 975c 6c3d 6026 ba3d f6bd eb3d
00000030: a73e c53c d5dd 36bc b10b c73c 56c3 d63d
00000040: 340c 5c3d 3463 a13d b6dd ed3c 57b4 d43c
00000050: 918f 043e e3e2 9e3d c803 c33d 5b4e 9e3c
00000060: 4146 e13d f1e1 093e 5029 2c3c 0943 143d
00000070: a797 f73d 9067 89bd 8ddc 6c3d e571 cb3d
00000080: e393 debb 5310 cf3d d5d9 6d3d 1759 043e
00000090: 20e3 2f3d 72ca 753d 6c36 26bc 4722 88bc
000000a0: fb7d c83d a942 9b3d c204 f73d 27fd 923d
000000b0: 35bc 9dbc be1c 4bbd 74f7 fc3b e763 20bd
000000c0: 0ebc 913d dbd2 1bbd 1a71 13bd 2989 0ebe
000000d0: f095 353c cd8c 09be e2bc 35be d8e8 3ebd
000000e0: 0127 79bd f477 10be e6f4 10be 8211 9abd
000000f0: 6904 11be 557b 4bbe badc 3fbe 864c 88bd
00000100: f505 1bbc 2603 963c 8662 fbbd d8c5 a9bd
00000110: 7c52 39bc cf02 afbd 227f 68bc e89d 3cbd
00000120: 4629 47bd c4a3 b1bc 2ae4 933d ab79 7cbd
00000130: e989 0cbd e7ae 043c f30b 543d d10c 153c
00000140: 0d5b dcbc 0a41 a03d 2d80 aa3c 383b b93d
00000150: 15c3 b83d 946f 8c3d f630 ba3d 8cc2 863c
00000160: ab07 933d d431 2f3d 88d0 0d3e b6f2 4a3e
00000170: e847 4f3e 6c22 533e f374 6b3e 7e2b 0c3e
00000180: f475 833e f966 b53e 0f87 913e e8f5 623e
00000190: f47e d93d 0e5a dc3c 6bb9 4abc b59e abbc
000001a0: a2b7 7dbd 7c12 48be a577 d0bd 3276 09be
000001b0: 4e8b 05be d06d 7dbe e040 4fbe 1714 09be
000001c0: 3651 e1bd 6abe 27bd 68a9 47bc 80c2 833d
000001d0: b27d bb3d c604 eabb 3bcb 203e 03c8 243e
000001e0: 52fa 9c3d 22e1 aa3d b200 7b3d 18a3 743d
000001f0: faf6 8e3c f764 c23d 0dc4 5c3c f86d a9bc
00000200: f754 1b3d c804 383d d708 9ebd 8a63 91bc
00000210: 2b61 40bd 1cab 813d e496 5e3d 6e13 be3d
00000220: b02b b2bc 8c92 f9bb 118b 96bd c9e6 adbd
00000230: dc54 07be 58dd a83c a785 35bd 0a96 50bd
00000240: 7824 fb3c d9e0 febc 360a 863d 9ff3 cdbd
00000250: 64e1 7cbd a048 a13b a8e2 82bc 4dde 2abe
00000260: 818b bcbc 975e f8bc b42d b8bd 336c 3dbe
00000270: b2c8 41be 4368 89bd b6c8 53be 1968 9fbd
00000280: 29df 33be b72f 3fbe cb26 79bd 06fc c4bd
00000290: f13d a9bd 41d2 c1bd 4477 a3bd 1112 dcbd
000002a0: cd65 febd 5a32 f6bd a8e5 0bbe 4db2 3abe
000002b0: 3262 84be 8e09 acbe 60d9 8bbe ccd5 83be
000002c0: bee7 5bbe 2f73 a3be 8930 b1be 197d acbe
000002d0: 8dcf ebbe d570 f3be b759 0abf 8a63 edbe
000002e0: b125 02bf 4e42 20bf dbb9 02bf 3de2 f5be
000002f0: 93e2 19bf 4a4e d7be 44db babe 5358 afbe
00000300: 9d1a 6abe 9bb6 9bbe 750c 1abe 4b02 3cbd
00000310: b539 48bd c819 cfbc 2820 773d e9a5 0b3e
00000320: c5ae 1b3e cd61 bf3c d9bd 51bd 67c3 67bd
00000330: c569 7dbd c438 373d 48cf 2fbc 4ec3 a23c
00000340: 0c2a 553d c208 a03d c979 39bd e7ae aebc
00000350: 162a 6abd 7ed9 703d 1a56 833d 1f99 e1bc
00000360: a9d0 70bd 103f 883d 2670 c9bb 05cb 1b3c
00000370: 8cfe 2ebd c469 cbbd f838 a23c 3660 6abd
00000380: 77ca 9cbc f059 0b3c 18dd b83d 422b 283d
00000390: e5aa 783d c8c5 67bd 80ce 873d fe68 59bd
000003a0: 8320 503c f84f 0cbd 3fd5 a43d 5c3f 863c
000003b0: 114f 87bc 26bd 8f3d 87db 373d 6a9e 943d
000003c0: 66f5 39bd 7133 15bd a563 a9bd 06a5 b23d
000003d0: 2b2d f8bc f88f 71bd 70a3 a13d 6ab0 75bd
000003e0: f3fe 22bd bb24 253d 45d3 f8bc edc5 c1bd
000003f0: 3c1f 1c3d 8c54 96bd 7178 633d e116 05bd

fc1.bias f4 [50]
-0.013770633 0.16090256 -0.020345926 0.1082938 0.29203403 0.015129135 0.36589408 -0.055573642
0.26844162 0.29161793 0.3759884 0.35975474 0.080990806 0.21117742 -0.07232931 0.3717019
0.36696312 -0.22757222 -0.23433556 0.20020695 -0.07444689 0.480575 0.007944049 0.12353246
0.1577084 -0.039651603 -0.054848067 -0.043958355 0.009554939 0.3173795 0.3682725 0.33670133
0.2999898 0.34346867 0.027491936 0.22890824 0.28821528 -0.05419394 0.11571264 0.3790479
-0.013428002 0.0032252455 0.31090286 0.006549369 -0.0076331813 0.5084544 -0.104831345 0.30550018
0.3350179 0.26760742
00000000: 399e 61bc a4c3 243e 80ac a6bc 24c9 dd3d
00000010: 7c85 953e 31e0 773c 7856 bb3e 30a1 63bd
00000020: 2e71 893e f24e 953e 8d81 c03e c631 b83e
00000030: 82de a53d e53e 583e 6421 94bd b64f be3e
00000040: 97e2 bb3e b108 69be a9f5 6fbe 0d03 4d3e
00000050: 9c77 98bd ed0d f63e c227 023c 96fe fc3d
00000060: 507e 213e b869 22bd 5ea8 60bd ad0d 34bd
00000070: 528c 1c3c 917f a23e 378e bc3e 1e64 ac3e
00000080: 4398 993e 20db af3e c536 e13c ec66 6a3e
00000090: f490 933e 77fa 5dbd c0fa ec3d 9112 c23e
000000a0: 1f01 5cbc a45e 533b a92e 9f3e 179c d63b
000000b0: c41f fabb 112a 023f d1b1 d6bd 856a 9c3e
000000c0: 7787 ab3e d703 893e

fc2.weight f4 [25, 50]
-0.09270381 -0.028232612 0.11498418 -0.13044441 -0.10425979 -0.052095484 -0.12223272 0.004448254
0.10814669 -0.14984095 -0.06863223 0.044240367 0.073745295 -0.08682675 0.13090248 0.093472704
-0.1462286 0.05083219 -0.086780965 0.03930232 0.037068553 0.054897953 0.0811002 -0.08554513
-0.13256203 0.02202351 -0.12687442 0.10312543 0.12758315 0.08701539 0.03139371 0.055157665
-0.15588492 -0.06918446 0.055444907 0.0282769 -0.122131534 0.049806528 -0.113246284 -0.1163562
-0.1088993 0.07188736 0.037084192 0.06088488 -0.026233109 -0.06268372 -0.08267043 0.022071905
-0.06488624 -0.08098795 0.030095292 0.3251227 -0.01962621 -0.17374735 0.097344264 -0.113226116
0.09540766 -0.14329231 0.18509267 0.27031207 0.2742231 -0.017195767 0.017476115 -0.03572409
0.07713553 0.047365323 -0.13168958 0.14175016 -0.2105695 0.106788374 -0.055589773 0.25717837
-0.07869783 -0.12420001 -0.032029122 0.16722056 0.0016065985 -0.11815684 -0.031216934 0.10497623
0.09503712 -0.21707241 0.036953438 0.12902635 -0.056402024 0.02638251 -0.05016932 -0.013949704
0.17195383 -0.11578538 -0.0023662192 -0.0034482628 0.2596624 -0.19745007 0.005221445 -0.17908877
0.025708862 0.3695983 0.19703272 0.17830607 0.04313571 0.11328043 -0.03635887 0.24433067
0.045410823 0.1661457 0.024006557 0.13032365 -0.13908458 0.09484243 0.21724756 -0.1347097
0.063170366 -0.17967755 -0.13161753 -0.008996783 0.06861541 -0.014990848 0.02267987 -0.06028373
-0.10283921 0.06341086 -0.02479417 -0.011557068 -0.101875894 -0.0030056033 -0.09333066 0.13096665
0.0017442725 -0.040581647 -0.2160653 -0.106771246 -0.18157263 0.11819537 -0.30787826 0.015326936
-0.03054873 0.07589093 -0.03145186 -0.11144825 -0.3340451 0.26253748 -0.022504725 -0.025694974
0.2286475 0.045176122 0.066676915 -0.06966293 0.12466452 0.23356949 -0.28205433 -0.0067148334
-0.056590483 0.15145114 0.13147874 -0.03155899 0.2708487 -0.04311491 0.2542188 0.10743724
0.2817316 0.40362692 -0.124634795 0.11835507 -0.021943979 0.27312908 0.28975022 -0.10793829
-0.37215817 0.0949487 -0.09023117 0.03619574 -0.09006386 -0.018420298 0.13622867 0.18753701
-0.06671735 0.05272598 -0.10724917 0.099158324 0.104664914 0.21904328 -0.21942475 0.014612488
-0.22914205 -0.015790835 0.11890234 -0.016145935 -0.031911258 0.34143513 0.25773504 0.0672819
0.07994322 0.12480535 -0.19231743 0.29103276 -0.43993643 0.2595159 -0.07712823 -0.15244505
0.24999768 -0.14048259 -0.08930587 0.19308627 -0.45559174 0.19636853 -0.13388062 0.08317475
0.007187616 -0.21405476 0.088722445 0.044626705 -0.030302433 -0.10030115 0.10561775 -0.012348324
0.001945755 -0.14720938 -0.18201752 -0.3380394 0.052842278 0.11215358 -0.116366394 -0.30426008
-0.33831775 0.082936645 -0.08098976 -0.06703789 -0.036297977 -0.11912534 -0.2895109 -0.2646289
-0.28113085 0.16996469 -0.22325349 -0.14592585 -0.2744581 -0.0670944 -0.080644876 -0.33166656
-0.2108446 -0.016129622 0.02376173 -0.09817511 0.19315453 0.12625134 0.21899238 -0.026344212
0.13269892 -0.11496545 -0.010929065 0.17542754 0.05758005 -0.25905445 -0.042053863 -0.2620521
00000000: 7fdb bdbd 1448 e7bc d37c eb3d 3893 05be
00000010: 2886 d5bd 1362 55bd 2655 fabd a9c2 913b
00000020: 037c dd3d e86f 19be 0e8f 8cbd 6335 353d
00000030: c607 973d 39d2 b1bd 4d0b 063e 9e6e bf3d
00000040: f3bc 15be 6a35 503d 38ba b1bd 78fb 203d
00000050: 32d5 173d addc 603d dd17 a63d 4932 afbd
00000060: 57be 07be a66a b43c 5eeb 01be 6d33 d33d
00000070: 28a5 023e 2035 b23d b196 003d 01ed 613d
00000080: 4ca0 1fbe 95b0 8dbd 331a 633d f5a4 e73c
00000090: 1920 fabd ee01 4c3d abed e7bd 294c eebd
000000a0: 9906 dfbd ae39 933d 98e5 173d 6d62 793d
000000b0: d1e6 d6bc 5260 80bd 1d4f a9bd 24d0 b43c
000000c0: 14e3 84bd 03dd a5bd 678a f63c 7c76 a63e
000000d0: 25c7 a0bc d3ea 31be 6e5c c73d 18e3 e7bd
000000e0: 1765 c33d 38bb 12be ef88 3d3e 5866 8a3e
000000f0: f866 8c3e 23de 8cbc 122a 8f3c 6c53 12bd
00000100: 3cf9 9d3d 2402 423d a2d9 06be f426 113e
00000110: 889f 57be ddb3 da3d 1ab2 63bd e2ac 833e
00000120: 542c a1bd 935c febd f830 03bd de3b 2b3e
00000130: 8094 d23a 37fc f1bd a8ba ffbc c7fd d63d
00000140: d2a2 c23d 3b48 5ebe 7d5c 173d 7c1f 043e
00000150: cf05 67bd 2220 d83c 587e 4dbd 4d8d 64bc
00000160: aa14 303e e320 edbd 9212 1bbb 40fc 61bb
00000170: 78f2 843e 5a30 4abe a818 ab3b 0c63 37be
00000180: 649b d23c fd3b bd3e f2c2 493e de95 363e
00000190: 12af 303d 92ff e73d 0aed 14bd d231 7a3e
000001a0: b300 3a3d 1922 2a3e 66a9 c43c 9073 053e
000001b0: 306c 0ebe bf3c c23d 2576 5e3e 57f1 09be
000001c0: 775f 813d 64fd 37be bfc6 06be 3e67 13bc
000001d0: 3c86 8c3d 2c9c 75bc 22cb b93c 13ec 76bd
000001e0: 5d9d d2bd 8edd 813d 251d cbbc db59 3dbc
000001f0: 4fa4 d0bd a8f9 44bb 2524 bfbd 1f1c 063e
00000200: 13a0 e43a f138 26bd 3940 5dbe e2aa dabd
00000210: 2dee 39be 6a10 f23d 38a2 9dbe d41d 7b3c
00000220: 5541 fabc b46c 9b3d aad3 00bd fb3e e4bd
00000230: f607 abbe 506b 863e d45b b8bc 447e d2bc
00000240: 9222 6a3e 990a 393d e88d 883d 70ab 8ebd
00000250: 1d50 ff3d d72c 6f3e 6d69 90be 1b08 dcbb
00000260: 6ccb 67bd 0216 1b3e 5da2 063e 0044 01bd
00000270: aeac 8a3e 4399 30bd f728 823e 0e08 dc3d
00000280: 203f 903e 30a8 ce3e 8740 ffbd 2564 f23d
00000290: dcc3 b3bc 93d7 8b3e 245a 943e c00e ddbd
000002a0: 848b bebe 7774 c23d 1fcb b8bd fc41 143d
000002b0: 6773 b8bd 2ae6 96bc 877f 0b3e b409 403e
000002c0: 1ba3 88bd 32f7 573d 74a5 dbbd 8513 cb3d
000002d0: 8f5a d63d e24c 603e e2b0 60be 3869 6f3c
000002e0: 37a4 6abe c85b 81bc 1283 f33d 7b44 84bc
000002f0: 61b5 02bd 96d0 ae3e d9f5 833e 18cb 893d
00000300: 45b9 a33d f399 ff3d dcee 44be 3f02 953e
00000310: 593f e1be 45df 843e 68f5 9dbd 8e1a 1cbe
00000320: 64ff 7f3e abda 0fbe ffe5 b6bd 68b8 453e
00000330: 5243 e9be d514 493e 0018 09be 8657 aa3d
00000340: 1886 eb3b 2c31 5bbe 1db4 b53d 7eca 363d
00000350: cf3c f8bc b06a cdbd 1e4e d83d a050 4abc
00000360: b408 ff3a 0ebe 16be cd62 3abe 8013 adbe
00000370: 2571 583d c7b0 e53d 8151 eebd fac7 9bbe
00000380: fc37 adbe b0da a93d f6dd a5bd 294b 89bd
00000390: 30ad 14bd fcf7 f3bd c63a 94be 707d 87be
000003a0: 62f0 8fbe 390b 2e3e 909c 64be 966d 15be
000003b0: c685 8cbe ca68 89bd 2429 a5bd 33d0 a9be
000003c0: a6e7 57be 4522 84bc f6a7 c23c 0810 c9bd
000003d0: 4dca 453e 0848 013e 8a3f 603e d1cf d7bc
000003e0: 3ae2 073e 0173 ebbd d20f 33bc 47a3 333e
000003f0: 0fd9 6b3d c9a2 84be ac40 2cbd b12b 86be

fc2.bias f4 [25]
0.035932302 0.35283566 0.234728 0.28762805 0.19860204 0.07727739 -0.09156942 0.10728488
0.14807914 0.2829341 0.16544333 0.26598525 0.25235707 0.010637771 0.21666062 0.042606767
0.27599123 -0.0765972 0.14604317 -0.1060351 0.2183822 -0.11351712 -0.04132116 0.3806183
0.3796813
00000000: c02d 133d e0a6 b43e 895c 703e fc43 933e
00000010: 555e 4b3e 9c43 9e3d c088 bbbd 2db8 db3d
00000020: 0fa2 173e bddc 903e fa69 293e 382f 883e
00000030: f234 813e 0c4a 2e3c 48dc 5d3e 6f84 2e3d
00000040: b94e 8d3e fede 9cbd 578c 153e ee28 d9bd
00000050: 959f 5f3e aa7b e8bd 6040 29bd 67e0 c23e
00000060: 9665 c23e

fc21.weight f4 [5, 25]
-0.13921236 0.301944 -0.19173 -0.47701156 0.15035047 0.27153412 0.19276145 0.11194299
-0.14623035 0.16708605 0.23215206 -0.71916294 0.22966722 -0.2972322 0.14188981 -0.015856065
0.9067234 -0.15222456 -0.24366713 0.17160504 -0.2729771 -0.050174378 -0.19726978 -0.08169646
0.007025108 -0.10409761 -0.014159067 -0.07416079 -0.11771933 0.06513785 -0.018567497 0.026477132
0.031688523 -0.057167474 0.12663965 -0.07199368 0.049074315 0.0034279574 0.04025678 0.033854764
-0.049553987 0.029091526 -0.077306665 -0.021453258 0.11451277 0.08817074 0.14118329 -0.05180327
-0.107532635 0.12338219 0.17311731 0.021822596 -0.0021468361 -0.09922336 -0.008570897 0.0028046984
-0.09429594 0.061166767 0.04773163 -0.058514524 0.03809867 0.049666714 -0.083650626 0.07465029
-0.030441629 -0.04467281 0.15054479 -0.043464664 -0.11256654 0.07835146 -0.012160641 -0.08228302
-0.06326924 0.07083656 -0.11321338 0.010117652 -0.06215326 -0.3098007 0.2610522 -0.31590688
0.19643724 -0.25323993 0.4175675 -0.1531132 0.23763274 -0.17363793 0.24083494 0.08833235
-0.010990357 -0.2853619 0.25061405 0.110172205 0.088666685 0.28057697 -0.12339804 0.17636853
-0.12030363 0.13914327 0.3081252 0.0051665325 -0.12254397 -0.038409885 -0.0016604847 0.12357103
-0.02156771 -0.030511865 0.026290294 0.014421589 -0.01342287 -0.06223015 0.030867117 -0.040870383
-0.018661257 -0.10967809 0.001970892 0.016475007 -0.06979016 0.16100305 0.10395749 0.10751798
-0.06869403 0.04577907 -0.16129674 0.029837526 -0.12523402
00000000: af8d 0ebe 6798 9a3e de54 44be dc3a f4be
00000010: 79f5 193e 8506 8b3e 4263 453e 5e42 e53d
00000020: 69bd 15be 9b18 2b3e 45b9 6d3e 101b 38bf
00000030: e22d 6b3e d22e 98be 904b 113e 94e4 81bc
00000040: 061f 683f c1e0 1bbe e083 79be 3bb9 2f3e
00000050: a8c3 8bbe a683 4dbd 1701 4abe 7950 a7bd
00000060: e132 e63b 2131 d5bd 6efb 67bc 9de1 97bd
00000070: d516 f1bd fe66 853d dd1a 98bc 92e6 d83c
00000080: d3cb 013d 7128 6abd d3ad 013e 6c71 93bd
00000090: 2602 493d 95a7 603b 4be4 243d 4bab 0a3d
000000a0: 1ff9 4abd 5a51 ee3c f552 9ebd bebe afbc
000000b0: ac85 ea3d dc92 b43d 5a92 103e aa2f 54bd
000000c0: 123a dcbd cdaf fc3d aa45 313e 4dc5 b23c
000000d0: efb1 0cbb 9e35 cbbd f36c 0cbc 08cf 373b
000000e0: 3b1e c1bd 018a 7a3d 3e82 433d edac 6fbd
000000f0: 5a0d 1c3d 536f 4b3d 0551 abbd 40e2 983d
00000100: b960 f9bc d6fa 36bd 6a28 1a3e 0108 32bd
00000110: 4989 e6bd bb76 a03d 6d3d 47bc 0084 a8bd
00000120: 4e93 81bd c212 913d 6bdc e7bd 82c4 253c
00000130: 6b94 7ebd 339e 9ebe a2a8 853e 8cbe a1be
00000140: d826 493e aaa8 81be 68cb d53e b5c9 1cbe
00000150: ff55 733e 24ce 31be 6f9d 763e 97e7 b43d
00000160: e610 34bc f41a 92be 7c50 803e f7a1 e13d
00000170: e196 b53d c9a7 8f3e 1db8 fcbd f499 343e
00000180: c061 f6bd 937b 0e3e 96c2 9d3e 044c a93b
00000190: 55f8 fabd af53 1dbd 9fa4 d9ba cf12 fd3d
000001a0: c4ae b0bc 05f4 f9bc be5e d73c 8748 6c3c
000001b0: 99eb 5bbc 0be5 7ebd 09dd fc3c b467 27bd
000001c0: 7edf 98bc e89e e0bd 152a 013b 98f6 863c
000001d0: 25ee 8ebd fcdd 243e aae7 d43d 6332 dc3d
000001e0: 75af 8cbd d682 3b3d f92a 25be d46d f43c
000001f0: 593d 00be

fc21.bias f4 [5]
-0.016580237 0.18233527 0.20451178 -0.23419808 -0.026445357
00000000: 47d3 87bc 19b6 3a3e 896b 513e 9fd1 6fbe
00000010: efa3 d8bc

fc22.weight f4 [5, 25]
0.12634446 -0.23832856 -0.2504449 0.45755863 0.21770942 0.28723916 -0.09787256 0.011193371
0.018396793 0.113315836 0.3320135 0.052854635 0.018700026 -0.18139149 -0.38614032 -0.21083835
-0.3971605 0.0024372218 -0.12240528 0.187497 -0.014455519 0.116531976 -0.0866852 -0.019411724
-0.08738623 0.06522467 -0.013437381 -0.034291632 0.019446647 0.017401733 0.003904265 -0.0029819636
0.022648523 -0.021927254 0.025586523 -0.0076683434 -0.024396915 -0.015059119 -0.053669054 0.030195322
-0.00552084 0.00013634202 -0.037077356 0.056504335 -0.10447059 -0.022315258 -0.018051352 -0.03453674
-0.010354487 0.009189474 -0.007986908 0.018357022 -0.014090512 0.0054510306 0.02112728 -0.0019856724
0.0019607705 0.007590472 -0.031214338 5.7141122e-05 -0.017140428 -0.015520648 -0.045610365 -0.02723131
-0.03153702 -0.008416677 -0.0073959692 0.13436794 0.014429892 -0.16953957 -0.016978126 -0.07457938
-0.007179932 0.0152071165 -0.027571686 0.1876103 -0.18666117 -0.35523862 -0.5239374 -0.06788445
-0.018264249 0.37260428 -0.00016528914 -0.2327764 0.12592994 -0.3351708 -0.22397876 0.03776494
0.16505899 -0.1854026 0.20920223 0.27538803 -0.13151662 -0.14148858 0.16346224 0.10671842
-0.113192454 -0.09329338 0.1796697 -0.29705352 -0.06366185 0.02965826 0.019552466 0.01840976
0.008465277 0.0032150282 -0.009241958 -0.0064941593 -0.020099323 0.014438821 -0.034620408 -0.018426452
-0.040224727 -0.057336755 -0.022368493 0.0008367448 0.0034006683 -0.0026752916 0.015409922 0.12591438
0.0075710826 0.02659888 -0.030583141 0.008241436 -0.034068324
00000000: 7160 013e 670c 74be 503a 80be 2045 ea3e
00000010: 38ef 5e3e 0311 933e 6971 c8bd 6764 373c
00000020: dfb4 963c 2212 e83d acfd a93e 1a7e 583d
00000030: cc30 993c b1be 39be 2fb4 c5be 02e6 57be
00000040: 9f58 cbbe ccb9 1f3b 9faf fabd 37ff 3f3e
00000050: d7d6 6cbc 51a8 ee3d 0388 b1bd 5605 9fbc
00000060: 8df7 b2bd 8394 853d 7628 5cbc 6275 0cbd
00000070: 934e 9f3c 148e 8e3c b2de 7f3b 0c6d 43bb
00000080: 6589 b93c c9a0 b3bc d49a d13c ba46 fbbb
00000090: 0adc c7bc 86ba 76bc 15d4 5bbd 2e5c f73c
000000a0: 2ae8 b4bb 08f7 0e39 6dde 17bd 1771 673d
000000b0: adf4 d5bd 7dce b6bc 6ee0 93bc 6676 0dbd
000000c0: dea5 29bc 738f 163c 85db 02bc 7761 963c
000000d0: e4db 66bc 8f9e b23b 1e13 ad3c 0e22 02bb
000000e0: 4580 003b 7fb9 f83b 36b5 ffbc d0aa 6f38
000000f0: 156a 8cbc 514a 7ebc efd1 3abd 3214 dfbc
00000100: f62c 01bd 1ae6 09bc e359 f2bb c097 093e
00000110: 5b6b 6c3c c89b 2dbe b615 8bbc 13bd 98bd
00000120: a345 ebbb 4527 793c 04de e1bc ea1c 403e
00000130: 1b24 3fbe d6e1 b5be c320 06bf 0107 8bbd
00000140: e89e 95bc fdc5 be3e 7751 2db9 f05c 6ebe
00000150: c7f3 003e 829b abbe b05a 65be 69af 1a3d
00000160: 3905 293e 2eda 3dbe 1c39 563e a9ff 8c3e
00000170: 4bac 06be 62e2 10be a562 273e 308f da3d
00000180: 72d1 e7bd 9a10 bfbd 55fb 373e 6617 98be
00000190: 2561 82bd e1f5 f23c 7e2c a03c 11d0 963c
000001a0: f2b1 0a3c 39b3 523b 956b 17bc f5cc d4bb
000001b0: 56a7 a4bc ce90 6c3c 21ce 0dbd 12f3 96bc
000001c0: afc2 24bd f2d9 6abd 213e b7bc fe58 5b3a
000001d0: bfdd 5e3b f253 2fbb e679 7c3c b3ef 003e
000001e0: d816 f83b e5e5 d93c 7f89 fabc 1707 073c
000001f0: 3a8b 0bbd

fc22.bias f4 [5]
-0.04215135 -6.55193e-05 0.05420412 -0.2629928 -0.016704073
00000000: e5a6 2cbd 6867 89b8 2405 5e3d fea6 86be
00000010: fbd6 88bc

fc3.weight f4 [25, 6]
-0.04081074 0.021687448 -0.00020810595 1.4403385 0.03262928 0.42389804 0.077603675 0.11463241
0.020801429 0.39781862 0.040928926 0.2083888 0.025448017 0.0019016668 0.004036394 -1.5182741
-0.007946144 -0.06381782 0.6351921 -0.052636657 0.07069055 -0.060484253 -0.10832418 0.19826078
-0.05354509 -0.06241072 0.026773209 1.0840005 -0.01393299 0.4942742 -0.18124312 0.0045746746
0.03032213 0.2813419 0.0021766468 -0.06032388 0.019619474 -0.011991014 0.0033088587 0.8914603
0.018707426 -0.21414351 0.115008526 -0.046621792 0.11209192 0.22223464 -0.08927955 -0.019870002
-0.10028387 -0.0027988693 -0.008682937 0.23253284 0.006601827 -0.20787236 0.19238743 -0.110140346
-0.120963015 -0.06495248 0.110554576 0.61365587 0.57931125 -0.024801465 0.021326166 -0.09961124
-0.00984078 0.12134215 0.64027035 0.18560615 -0.0052066077 0.13667385 0.14062908 0.15024221
-0.085253805 0.14069697 0.033421464 0.29815954 -0.17661662 -0.4397866 0.21475396 0.045012537
-0.08354683 0.16388206 -0.03667037 -0.034612946 0.025763793 -0.032586735 -0.0054335785 0.33269697
0.038539466 -0.44966558 -0.16117392 -0.0012594102 0.01671144 0.04187314 -0.0405379 -0.1689451
0.053951357 0.07575642 -0.08388927 0.063147426 0.13259931 -0.072788656 -0.04588851 0.018851338
0.015906677 0.11128273 -0.03847719 0.6704275 0.087961435 0.008150467 -0.091456614 0.8612452
-0.0066444585 0.30794293 -0.057482693 0.0097808475 0.026120724 -0.059592146 0.0062632277 0.5318644
0.024402047 -0.0117101595 0.025049832 0.69450366 0.037887502 0.61534756 0.30056965 -0.04549732
-0.08475216 0.80705506 0.084433876 0.43899402 -0.04580977 -0.037583012 -0.025659168 0.2948156
-0.003226357 -0.09545659 0.20636877 -0.16212082 -0.06542332 0.048709095 0.08350112 -0.05669667
-0.26582062 0.123969615 -0.013240472 0.11501982 0.09448732 -0.14698043
00000000: 2a29 27bd e0a9 b13c 0437 5ab9 035d b83f
00000010: 48a6 053d 2a09 d93e adee 9e3d 66c4 ea3d
00000020: c267 aa3c e2ae cb3e 17a5 273d e063 553e
00000030: 5c78 d03c 5941 f93a ba43 843b ce56 c2bf
00000040: 8b30 02bc ebb2 82bd f39b 223f 8999 57bd
00000050: 35c6 903d 56be 77bd 11d9 ddbd e004 4b3e
00000060: 1952 5bbd 62a2 7fbd 7d53 db3c 87c0 8a3f
00000070: 3247 64bc 8211 fd3e cc97 39be 27e7 953b
00000080: 1e66 f83c 0c0c 903e 13a6 0e3b 2c16 77bd
00000090: 05b9 a03c f575 44bc 70d9 583b be36 643f
000000a0: 5140 993c 7048 5bbe 9789 eb3d 7ef6 3ebd
000000b0: 7390 e53d 7a91 633e 32d8 b6bd 6ac6 a2bc
000000c0: a161 cdbd 3c6d 37bb e142 0ebc 171d 6e3e
000000d0: 2454 d83b 7edc 54be 3601 453e 4391 e1bd
000000e0: 75bb f7bd ce05 85bd 706a e23d 8d18 1d3f
000000f0: be4d 143f 712c cbbc 36b4 ae3c fa00 ccbd
00000100: 393b 21bc 3c82 f83d c2e8 233f 8a0f 3e3e
00000110: 319c aabb 3bf4 0b3e 1201 103e 18d9 193e
00000120: 8c99 aebd de12 103e f2e4 083d 5ea8 983e
00000130: fdda 34be b62b e1be 76e8 5b3e 115f 383d
00000140: 9a1a abbd b3d0 273e ab33 16bd 4ec6 0dbd
00000150: 970e d33c ab79 05bd 290c b2bb 4257 aa3e
00000160: 8fdb 1d3d 913a e6be c70a 25be cb12 a5ba
00000170: 6ee6 883c 2b83 2b3d 120b 26bd f2ff 2cbe
00000180: 19fc 5c3d 2f26 9b3d 23ce abbd 7053 813d
00000190: 1dc8 073e 3812 95bd 97f5 3bbd 1f6e 9a3c
000001a0: b84e 823c 33e8 e33d 429a 1dbd 23a1 2b3f
000001b0: 2025 b43d 8989 053c 9b4d bbbd 917a 5c3f
000001c0: c2b9 d9bb b2aa 9d3e f972 6bbd d93f 203c
000001d0: 21fb d53c e516 74bd c33b cd3b 4428 083f
000001e0: cde6 c73c f8db 3fbc 4e35 cd3c feca 313f
000001f0: ed2f 1b3d 6b87 1d3f 44e4 993e 665b 3abd
00000200: 8a92 adbd 299b 4e3f abeb ac3d d3c3 e03e
00000210: 06a3 3bbd a5f0 19bd 2d33 d2bc 12f2 963e
00000220: 4a71 53bb bf7e c3bd 5652 533e 0003 26be
00000230: a9fc 85bd 3083 473d a302 ab3d c43a 68bd
00000240: a419 88be c8e3 fd3d 91ee 58bc 838f eb3d
00000250: 9182 c13d 0a82 16be

fc3.bias f4 [25]
-0.54938334 0.7332283 -0.49875024 -0.11937139 -0.1681437 1.2564822 1.3585413 1.1238812
1.5622592 -0.45460758 -0.5262451 0.5355784 0.47496644 1.1995554 0.8237987 1.3219267
1.2195811 -0.14459595 0.38993368 -0.493058 -0.042182215 -1.2328686 1.2534571 1.3418349
-0.15594909
00000000: 63a4 0cbf dab4 3b3f 315c ffbe fd78 f4bd
00000010: dd2d 2cbe 69d4 a03f aee4 ad3f 57db 8f3f
00000020: 1cf8 c73f 53c2 e8be 00b8 06bf ab1b 093f
00000030: cd2e f33e 088b 993f 79e4 523f e534 a93f
00000040: 3c1b 9c3f f610 14be 63a5 c73e 1972 fcbe
00000050: 42c7 2cbd a3ce 9dbf 4871 a03f 3fc1 ab3f
00000060: 1eb1 1fbe

fc4.weight f4 [50, 25]
0.05259733 -0.16438183 -0.1473665 -0.090507284 -0.038897667 -0.15848008 -0.16091084 0.015489296
-0.03989481 -0.025735447 0.13838157 -0.093821704 -0.102289714 -0.18541944 0.07046889 0.15086934
-0.06560544 0.051418662 -0.097959384 -0.17667465 -0.22615544 -0.15409315 -0.18023701 -0.17042387
0.19400276 0.086678945 0.12306815 -0.28588232 0.08853182 -0.13510889 0.1255488 0.08352474
0.2527958 0.18668902 -0.007766692 0.25019604 0.15325129 0.15127352 0.04188335 0.4345168
0.092126735 -0.08435488 0.12407202 0.10382214 0.09429673 0.04033397 0.18028283 0.03285372
0.07506212 -0.085068315 0.09287047 0.10603203 -0.24854161 -0.06333734 0.071727656 0.03430318
0.10376909 0.19708985 0.07537226 0.21035294 0.10025877 0.08390623 0.3637956 -0.10862906
0.9867011 0.14430752 -0.1870394 -0.005778887 -0.052525394 0.33648044 -0.033139873 0.4195067
-0.2972856 -0.21668316 0.049217362 0.10063029 -0.11414041 -0.13039649 0.17656967 -0.11045599
0.051060732 0.009827036 0.026252346 -0.023166915 -0.042430367 0.049611107 -0.04348394 0.019066224
0.1091766 0.46043694 0.12987086 -0.008078057 0.016964858 0.090274446 0.07193579 0.18513083
0.13475506 0.12181545 -0.00043176633 0.052105203 -0.056250144 -0.06180054 -0.077342466 -0.06672926
-0.49178818 0.4979417 0.86375004 0.36732808 0.55900776 -0.4034292 0.06222592 0.16428725
0.22139955 0.18513696 0.24386188 0.29107243 0.22430196 -0.7278807 -0.20686616 -0.91634446
-0.6963731 -0.19408382 0.45349386 0.35174683 0.22775486 -0.021609642 0.18701337 -0.4661394
0.28691453 -0.08345309 0.05313015 -0.24885991 0.29600212 0.34316492 0.08741025 0.04807841
0.03544466 0.16542211 0.315487 0.055330515 0.004446664 0.019629449 0.03918935 0.13568619
-0.16059257 -0.09325455 -0.035823967 -0.14938384 0.115308166 -0.16772358 0.12675327 -0.12452502
-0.35085145 0.25287396 0.040466964 -0.165322 -0.11657011 -0.07845152 0.4973114 0.3248379
0.4325295 0.17506625 0.18278751 0.0011057812 0.7555593 0.39865196 -0.38858762 -0.11865056
0.19412738 -0.046345618 0.041987397 0.45450693 -0.227718 -0.39139423 0.09049572 -0.06738599
-0.26691768 -0.004065836 -0.017769821 -0.35509345 0.13890843 1.0873419 0.19145541 0.5497728
-0.6067486 0.055951003 0.012821938 0.41683903 0.13643017 0.72918797 0.06505786 0.2620701
-1.432643 -0.3805695 -0.92106867 -1.0407085 0.005858662 0.07227965 0.15706539 0.18746802
-0.03669378 0.1010959 -0.9107513 0.4673894 0.003321361 -0.610743 -0.35382265 -0.30465424
0.067684874 0.19572443 -0.26781988 0.23007672 0.056307424 -0.0147142485 0.20920293 -0.4857631
-0.5164342 0.0640083 -0.1590328 -0.09064596 0.058108173 0.33433062 -0.56130767 -0.0043773022
0.16917282 0.25310048 -0.07791929 -0.23434448 0.2077803 0.19115898 0.12931201 -0.021184154
-0.1222701 0.1911534 0.056685466 0.111022845 0.10592498 0.1533858 -0.07976985 0.024439912
0.21398938 -0.0694896 -0.12395222 -0.03162732 -0.03367358 0.12311978 0.18417045 0.039794285
-0.14143705 0.05651687 0.03842129 0.26378903 -0.29175776 -0.1047178 0.10802835 0.1695354
00000000: 4c70 573d b653 28be 3ee7 16be e25b b9bd
00000010: 2953 1fbd 9a48 22be d0c5 24be d1c6 7d3c
00000020: be68 23bd 25d3 d2bc e6b3 0d3e 9825 c0bd
00000030: 457d d1bd 98de 3dbe fe51 903d 7e7d 1a3e
00000040: 255c 86bd 609c 523d ee9e c8bd 33ea 34be
00000050: 4b95 67be 98ca 1dbe 0d90 38be 9883 2ebe
00000060: a9a8 463e bb84 b13d 270b fc3d 2b5f 92be
00000070: 2c50 b53d fc59 0abe dd8f 003e 050f ab3d
00000080: 736e 813e 682b 3f3e bc7f febb b219 803e
00000090: e8ed 1c3e 72e7 1a3e e08d 2b3d fc78 de3e
000000a0: f1ac bc3d 40c2 acbd 7919 fe3d b4a0 d43d
000000b0: a51e c13d 3c35 253d 109c 383e 9f91 063d
000000c0: 2bba 993d 4c38 aebd df32 be3d 5227 d93d
000000d0: b181 7ebe 02b7 81bd f3e5 923d 7e81 0c3d
000000e0: e384 d43d ecd1 493e c55c 9a3d c366 573e
000000f0: 7854 cd3d 08d7 ab3d 6b43 ba3e ea78 debd
00000100: 7198 7c3f 5ac5 133e 4287 3fbe d15c bdbb
00000110: de24 57bd 2a47 ac3e adbd 07bd 95c9 d63e
00000120: d135 98be 31e2 5dbe 2598 493d 4117 ce3d
00000130: 73c2 e9bd a886 05be aece 343e c036 e2bd
00000140: 0f25 513d 9401 213c 290f d73c 8bc8 bdbc
00000150: 77cb 2dbd 0435 4b3d 371c 32bd c530 9c3c
00000160: fb97 df3d 64be eb3e defc 043e d459 04bc
00000170: e3f9 8a3c cfe1 b83d 1253 933d f092 3d3e
00000180: 3bfd 093e 617a f93d b25e e2b9 446c 553d
00000190: 8d66 66bd 9022 7dbd ba65 9ebd 5aa9 88bd
000001a0: a9cb fbbe 37f2 fe3e b91e 5d3f 6d12 bc3e
000001b0: 221b 0f3f 468e cebe 9be0 7e3d eb3a 283e
000001c0: 90b6 623e 8b94 3d3e eeb6 793e 7207 953e
000001d0: 6aaf 653e 6456 3abf b9d4 53be 8d95 6abf
000001e0: 8245 32bf e9bd 46be 5930 e83e 2918 b43e
000001f0: 9238 693e b406 b1bc 6f80 3f3e d3a9 eebe
00000200: 76e6 923e 74e9 aabd 009f 593d 22d5 7ebe
00000210: 978d 973e 50b3 af3e 2504 b33d deed 443d
00000220: 6b2e 113d 6a64 293e 8387 a13e 40a2 623d
00000230: 52b5 913b f0cd a03c 0385 203d 52f1 0a3e
00000240: 6172 24be 3efc bebd 27bc 12bd 14f8 18be
00000250: b026 ec3d bbbf 2bbe 9ccb 013e f906 ffbd
00000260: cda2 b3be b278 813e b0c0 253d 2c4a 29be
00000270: 4fbc eebd 31ab a0bd 9a9f fe3e 2751 a63e
00000280: 8274 dd3e 9144 333e a62c 3b3e dcef 903a
00000290: 566c 413f 1c1c cc3e f5f4 c6be 11ff f2bd
000002a0: 54c9 463e e7d4 3dbd fafa 2b3d 22b5 e83e
000002b0: e82e 69be d364 c8be d255 b93d aa01 8abd
000002c0: 6fa9 88be b43a 85bb 0492 91bc cfce b5be
000002d0: 033e 0e3e 052e 8b3f e30c 443e e9bd 0c3f
000002e0: e053 1bbf e12c 653d 1b13 523c ed6b d53e
000002f0: 5ab4 0b3e 10ac 3a3f 0e3d 853d 0d2e 863e
00000300: d960 b7bf 01da c2be 28cb 6bbf f035 85bf
00000310: 05fa bf3b 5a07 943d c0d5 203e 9ef7 3f3e
00000320: 384c 16bd 5e0b cf3d ff26 69bf aa4d ef3e
00000330: 31ab 593b a759 1cbf 3e28 b5be a4fb 9bbe
00000340: 5e9e 8a3d fc6b 483e b01f 89be 3b99 6b3e
00000350: 9da2 663d 0814 71bc 4b39 563e f1b5 f8be
00000360: 0835 04bf c916 833d 7fd9 22be 97a4 b9bd
00000370: d602 6e3d 622d ab3e dcb1 0fbf 796f 8fbb
00000380: a43b 2d3e 6396 813e 2694 9fbd 00f8 6fbe
00000390: 5cc4 543e 2ebf 433e 5e6a 043e 648a adbc
000003a0: bf68 fabd b8bd 433e 052f 683d f25f e33d
000003b0: 32ef d83d 2b11 1d3e 605e a3bd 3636 c83c
000003c0: 0820 5b3e 9050 8ebd a9da fdbd a68b 01bd
000003d0: 4fed 09bd 3926 fc3d 2e97 3c3e 55ff 223d
000003e0: e0d4 10be 3c7e 673d a55f 1d3d 5b0f 873e
000003f0: 4661 95be 4976 d6bd f83d dd3d b09a 2d3e

fc4.bias f4 [50]
0.16345954 0.06878943 -0.036039595 0.05659951 0.09892648 0.2900207 -0.16719069 -0.05703974
-0.07795782 0.17237891 0.30972403 0.4878292 0.20912294 0.4631245 -0.38409573 0.40034723
0.37889537 0.70353234 0.5524642 0.22480097 -0.2031094 0.58234775 -0.36455885 -0.06701181
0.6068496 -0.09009683 -0.3755488 -0.64445716 0.41958058 -0.117755674 -0.18526867 0.03369017
0.3504275 0.13232367 0.050281715 0.59185684 0.09251372 -0.111077435 0.21599765 0.088174134
0.10140769 0.43451065 0.50223607 0.51581067 0.21405017 0.38175088 0.24879564 0.069442995
0.58790874 0.34061193
00000000: f061 273e 79e1 8c3d 419e 13bd e3d4 673d
00000010: f799 ca3d 987d 943e 0934 2bbe 81a2 69bd
00000020: 59a8 9fbd 1984 303e 2694 9e3e c0c4 f93e
00000030: 5324 563e a81e ed3e 32a8 c4be 50fa cc3e
00000040: 93fe c13e b21a 343f 4b6e 0d3f 3a32 663e
00000050: e9fb 4fbe be14 153f 75a7 babe 7d3d 89bd
00000060: 7f5a 1b3f b084 b8bd ef47 c0be 25fb 24bf
00000070: 44d3 d63e e329 f1bd 12b7 3dbe b4fe 093d
00000080: 3c6b b33e db7f 073e 33f4 4d3d ee83 173f
00000090: d577 bd3d 917c e3bd 7d2e 5d3e a494 b43d
000000a0: d6ae cf3d 2e78 de3e 8b92 003f 2b0c 043f
000000b0: f82f 5b3e da74 c33e 49c4 7e3e 2138 8e3d
000000c0: 3081 163f b064 ae3e

fc5.weight f4 [100, 50]
-0.14325055 -0.15797788 0.12095956 -0.16030338 0.33107907 -0.11523752 0.24806185 0.7337662
0.0058569405 -0.21535195 -0.42923778 0.20626514 -0.37700868 -0.068020925 -0.56947803 -0.17396253
-0.2497265 -0.037503596 -0.28870884 -0.17837036 -0.3340264 0.21312168 0.45165366 -0.18869224
0.29948497 -0.13780832 -0.09696499 -0.15608212 0.31340262 -0.0351293 -0.5467147 0.0057204408
-0.058792446 0.12040905 -0.32892206 -0.2945479 -0.14404538 -0.37846416 0.82765555 -0.43499085
-0.26674727 -0.15570143 0.19024953 -0.21917747 -0.3143766 -0.06327041 -0.0535006 -0.1275816
0.010072036 -0.3134831 -0.014988079 -0.13475175 -0.017626751 -0.1832346 0.35903043 -0.27077708
0.1306443 0.6984073 -0.13450544 -0.09851423 -0.23632874 0.32334447 -0.38837552 0.15607072
-0.4830323 -0.21200763 -0.35721645 -0.13497002 -0.37680122 -0.056830738 -0.28159392 0.18739505
0.44704723 -0.16351879 0.35090998 -0.049226727 0.023480073 -0.19420874 0.10856273 -0.038911305
-0.52234465 -0.08544234 -0.05060476 0.15114467 -0.35653248 -0.2042119 -0.26923862 -0.37258857
0.71012276 -0.4505994 -0.20491347 -0.08953229 0.09157065 -0.054755848 -0.31669763 -0.08613361
0.12481126 -0.25754753 0.0032068996 -0.25292638 -0.08433873 0.0018905955 0.11705364 -0.19614018
0.36140943 -0.19541201 0.030805532 0.55062 -0.09671267 -0.06497019 -0.39681217 0.2070627
-0.2780118 -0.021743847 -0.478159 -0.22610478 -0.17908804 -0.009537995 -0.3464613 -0.08482857
-0.29206014 0.3544287 0.44104683 -0.3396977 0.16523671 -0.08922524 -0.14281371 -0.093560435
0.26257488 0.012692276 -0.50713605 0.036892682 0.033074092 0.20080099 -0.3606208 -0.24253666
-0.26413032 -0.3256609 0.5654329 -0.3870224 -0.22143067 -0.16116498 0.12116018 -0.14464608
-0.3282148 -0.1995252 0.108706914 -0.25577667 0.026332194 -0.2595162 -0.13727857 -0.052023403
-0.06702673 -0.08885935 0.3648026 -0.26230273 0.017476365 0.5231988 -0.037257906 -0.27666616
-0.21011563 0.20380446 -0.23356427 0.07356557 -0.24411313 -0.18927109 -0.21150269 -0.0015397544
-0.4477512 -0.12977415 -0.35682732 0.36116233 0.5416072 -0.26250786 0.30141258 -0.030898679
-0.05793284 -0.14292437 0.16978168 -0.08532411 -0.37786233 0.003094609 -0.08595024 0.055138316
-0.3032137 -0.12215366 -0.11802341 -0.26940235 0.10716203 -0.3355993 -0.18464789 -0.088990785
-0.031524234 -0.34643337 -0.4778747 -0.08180553 0.08130133 -0.12451779 -0.021398658 -0.12518625
-0.12393457 -0.14499462 0.054151863 -0.07805024 0.18763085 -0.063516594 -0.009601388 0.3422013
0.0839708 -0.22919558 -0.3112286 0.23063429 -0.52791476 -0.020537911 -0.22923061 -0.12956257
-0.20907183 0.045505103 -0.35473633 -0.144597 -0.3961396 0.12877908 0.4896879 -0.37648794
0.28066254 -0.12485048 -0.13892578 -0.036044754 0.07898664 0.09256498 -0.11090322 -0.053389397
-0.12610787 0.025159417 -0.35893306 -0.06850889 -0.17823176 -0.04580641 -0.21765463 -0.3947283
-0.16821533 -0.05633312 0.15086493 -0.15586548 -0.5097564 0.02972517 0.22032346 -0.26627526
0.1250187 -0.07729312 -0.0054826983 -0.09734362 -0.14251521 -0.16462561 0.34199947 -0.096791714
00000000: 46b0 12be f4c4 21be a5b9 f73d 9226 24be
00000010: 3283 a93e a601 ecbd ed03 7e3e 1ad8 3b3f
00000020: 94eb bf3b 3985 5cbe 0ec5 dbbe 2b37 533e
00000030: 4807 c1be 8e4e 8bbd 50c9 11bf 3c23 32be
00000040: 4eb8 7fbe 5f9d 19bd a5d1 93be b8a6 36be
00000050: 8205 abbe 923c 5a3e 263f e73e 8a38 41be
00000060: 1856 993e a01d 0dbe 9595 c6bd fed3 1fbe
00000070: 4f76 a03e bee3 0fbd 7ff5 0bbf 8972 bb3b
00000080: 59d0 70bd 0599 f63d 7968 a8be fbce 96be
00000090: a280 13be 0ec6 c1be 3ce1 533f 1fb7 debe
000000a0: 1993 88be 3270 1fbe c6d0 423e 0f70 60be
000000b0: f8f5 a0be eb93 81bd 7223 5bbd c0a4 02be
000000c0: 2e05 253c db80 a0be 8f90 75bc 5dfc 09be
000000d0: fa65 90bc daa1 3bbe d6d2 b73e 4ba3 8abe
000000e0: 9fc7 053e d2ca 323f cbbb 09be d4c1 c9bd
000000f0: 2900 72be 688d a53e 28d9 c6be 01d1 1f3e
00000100: 0250 f7be 8718 59be 13e5 b6be 9535 0abe
00000110: 17ec c0be 59c7 68bd 142d 90be 7de4 3f3e
00000120: 60e3 e43e 7871 27be 79aa b33e f7a1 49bd
00000130: 4859 c03c a8de 46be 2356 de3d 7661 1fbd
00000140: 61b8 05bf 65fc aebd f046 4fbd abc5 1a3e
00000150: 6d8b b6be ed1c 51be a5d9 89be eec3 bebe
00000160: 9bca 353f f7b4 e6be d6d4 51be b55c b7bd
00000170: 6589 bb3d ab47 60bd 3126 a2be d166 b0bd
00000180: 0c9d ff3d 45dd 83be d92a 523b 917f 81be
00000190: c9b9 acbd dccd f73a d2b9 ef3d f9d8 48be
000001a0: a80a b93e 161a 48be e25b fc3c 6ff5 0c3f
000001b0: 4b11 c6bd 170f 85bd f72a cbbe 3f08 543e
000001c0: 9057 8ebe 2720 b2bc 42d1 f4be 0388 67be
000001d0: db62 37be 4045 1cbc 6063 b1be 9aba adbd
000001e0: e888 95be ae77 b53e e4d0 e13e dbec adbe
000001f0: d033 293e b9bb b6bd c23d 12be 9d9c bfbd
00000200: 3770 863e 44f3 4f3c abd3 01bf c81c 173d
00000210: b378 073d c69e 4d3e 4aa3 b8be 885b 78be
00000220: 173c 87be 07bd a6be 36c0 103f cd27 c6be
00000230: b9be 62be 6f08 25be d422 f83d 1a1e 14be
00000240: c50b a8be 5650 4cbe bba1 de3d 29f5 82be
00000250: 9db6 d73c 4fdf 84be c192 0cbe 7e16 55bd
00000260: 4f45 89bd e4fb b5bd 68c7 ba3e 8b4c 86be
00000270: 982a 8f3c 5bf0 053f bf9b 18bd 30a7 8dbe
00000280: 8d28 57be 1eb2 503e 792b 6fbe 8ca9 963d
00000290: cbf8 79be 48d0 41be 2994 58be 96d1 c9ba
000002a0: a53f e5be 84e3 04be 12b2 b6be 45ea b83e
000002b0: c5a6 0a3f 6e67 86be c052 9a3e 3a1f fdbc
000002c0: fc4a 6dbd c45a 12be 40db 2d3e 68be aebd
000002d0: 2c77 c1be ecce 4a3b ae06 b0bd b7d8 613d
000002e0: d33e 9bbe b32b fabd 42b6 f1bd 1bef 89be
000002f0: c477 db3d acd3 abbe 5614 3dbe cd40 b6bd
00000300: 8e1f 01bd b75f b1be feab f4be a889 a7bd
00000310: 5081 a63d 2f03 ffbd 3d4c afbc d330 00be
00000320: 68d1 fdbd 7879 14be 58ce 5d3d ced8 9fbd
00000330: 4d22 403e fd14 82bd 244f 1dbc 0235 af3e
00000340: e2f8 ab3d 3fb2 6abe 5b59 9fbe 652b 6c3e
00000350: 6c25 07bf 1f3f a8bc 6ebb 6abe 0dac 04be
00000360: ed16 56be 8f63 3a3d 00a0 b5be 3c11 14be
00000370: cfd2 cabe aade 033e 5fb8 fa3e 07c3 c0be
00000380: 00b3 8f3e 9cb1 ffbd 8f42 0ebe aaa3 13bd
00000390: bfc3 a13d b592 bd3d 3a21 e3bd d7ae 5abd
000003a0: 6c22 01be 1f1b ce3c 13c6 b7be 644e 8cbd
000003b0: 6382 36be 819f 3bbd dbe0 5ebe d419 cabe
000003c0: a440 2cbe 8fbd 66bd 567c 1a3e 339b 1fbe
000003d0: 657f 02bf 3382 f33c 799c 613e 3b55 88be
000003e0: e704 003e db4b 9ebd 35a8 b3bb 185c c7bd
000003f0: 82ef 11be 9e93 28be 8e1a af3e bc3a c6bd

fc5.bias f4 [100]
-0.02134824 -0.13510431 -0.08878804 -0.0380415 -0.031084323 0.059108425 -0.03191265 -0.08759344
0.074229926 -0.016215224 -0.016825771 -0.010864148 0.036072 -0.13612527 0.0074981707 -0.0032811535
0.07733387 0.025025968 0.032259244 0.19692823 0.060860842 0.06659746 -0.07481327 0.080389105
0.13900861 -0.09669341 0.08326871 0.07946499 -0.013417547 -0.12079265 0.053555552 -0.15512648
-0.008960593 0.03935434 0.066350825 0.060026836 -0.11524208 0.073306456 0.11750979 0.07485892
-0.09577438 -0.10776718 -0.050104562 0.0760976 0.071461335 0.018922115 0.037978407 0.036043983
-0.012813849 -0.04160947 0.114901476 0.12583508 0.011698762 0.16606224 0.071419366 0.19942254
0.11527417 0.100539245 0.28147662 0.075913385 0.11756114 -0.012043496 0.21918121 0.14832255
0.013991097 0.0018910328 -0.08631358 0.067589484 -0.102538124 -0.09573505 -0.1440031 0.03549891
0.013773942 0.09205872 -0.13172907 0.056522176 -0.050384827 0.003801992 0.043333784 0.026059676
0.0036517936 0.13127574 -0.020128185 0.13298768 0.10239374 -0.051105022 -0.060246848 -0.026937071
-0.20039205 -0.13908786 -0.1215783 -0.16968581 -0.24361886 -0.31247294 -0.23920923 -0.40269032
-0.25533488 -0.31136346 -0.26506448 -0.31756243
00000000: 81e2 aebc c958 0abe 81d6 b5bd 67d1 1bbd
00000010: 8da4 febc ad1b 723d d7b6 02bd 3164 b3bd
00000020: dc05 983d cad5 84bc 33d6 89bc 8aff 31bc
00000030: 3cc0 133d 6c64 0bbe 37b3 f53b 9f08 57bb
00000040: 3861 9e3d 4203 cd3c 4522 043d 8ea7 493e
00000050: 3849 793d 4064 883d b337 99bd 0ba3 a43d
00000060: 4658 0e3e 3207 c6bd c988 aa3d 8abe a23d
00000070: 45d5 5bbc 2362 f7bd 115d 5b3d 7ad9 1ebe
00000080: 73cf 12bc 0432 213d f1e2 873d b3de 753d
00000090: 0a04 ecbd b221 963d f9a8 f03d a24f 993d
000000a0: 5c25 c4bd 0ab5 dcbd 713a 4dbd 0fd9 9b3d
000000b0: 525a 923d 8d02 9b3c 3f8f 1b3d dba2 133d
000000c0: 2ef1 51bc b16e 2abd 7751 eb3d e9da 003e
000000d0: 2aac 3f3c 380c 2a3e 5144 923d 6c35 4c3e
000000e0: dd14 ec3d 85e7 cd3d b41d 903e 7a78 9b3d
000000f0: e5c3 f03d 1552 45bc 0a71 603e dee1 173e
00000100: ea3a 653c 88dc f73a 2dc5 b0bd 5b6c 8a3d
00000110: 82ff d1bd bd10 c4bd 8c75 13be 4e67 113d
00000120: 1aac 613c 4889 bc3d fce3 06be cc83 673d
00000130: 5260 4ebd d72a 793b c47e 313d 1a7b d53c
00000140: ee52 6f3b 266d 063e dde3 a4bc ec2d 083e
00000150: cfb3 d13d 8053 51bd 66c5 76bd 22ab dcbc
00000160: 9333 4dbe 0c6d 0ebe 0bfe f8bd 1ec2 2dbe
00000170: 3977 79be 74fc 9fbe 44f3 74be 6d2d cebe
00000180: 41bb 82be 086b 9fbe 88b6 87be 8b97 a2be
