vae_model.pth (torch, 56912 bytes, 14 tensors)

fc1.weight f4 [50, 100]
00000000: 118f 313d 75dd 73bd 7394 5cbd 44c9 89bd
00000010: 0bde 533d 5081 c1bd 828b 9e3d 9a6b 8d3d
00000020: fd3a 873d e4a6 f1bc 0dae a43d 2af8 e8bd
00000030: 11da 87bd 74cd 493d 5d70 55bd b857 87bd
00000040: 0659 153d ecdd 923c 46ea 48bd 0fc8 b0bd
00000050: f70d b23d d12e a4bc 75a5 cabd cca4 cbbd
00000060: 5408 8b3d 84a9 003b 5763 fd3a feaf 82bc
00000070: 141d e93c fcc3 493d 6103 8f3c 3b4d 923d
00000080: b609 9fbc cae1 e6bd b6e3 81bd 1fd6 3fbd
00000090: b9cb 383d 7de6 973d 2c09 b3bd c4f7 95bd
000000a0: f83a 74bd cfa5 a83d 32d9 873d 73f9 dbbc
000000b0: 2f16 63bd 6da3 1ebc 6bea 79bc ee35 9dbd
000000c0: b1c3 12bd 9ff4 b5bd 37f1 f53a dda5 0cbd
000000d0: 6fd8 aab8 9933 c5bd 69a6 b33d 7934 b83d
000000e0: c3f4 893d fc0d a23c 50cb 51bd 6fca b6bd
000000f0: bd03 4fbd 764b 23bd bf6f 673c 3b3c d4bd
00000100: 70ee a33c bd85 a5bd 87cb 6cbd 3398 973d
00000110: 0f3b 4d3d 4250 023d ff98 e6bd bdce 05bd
00000120: c93e b0bd 6e66 a6bd ccca 873d b0f3 093d
00000130: 4d72 e1bd 57bd 553b 5f92 e7bb afe5 983d
00000140: 0f4f 303c 81e2 8dbd 1aa8 5fbd 3cfd 7e3d
00000150: b1f3 8a3d aa73 583d 138e efbd 6ef6 d93c
00000160: 50ab 51bd e0e8 f93c 0abb 8a3d 3ea8 aabd
00000170: a3d5 a03c d7ce 4bbd 7a92 4bbb 4b7d b03d
00000180: 651a 72ba b4ce 8b3b 8c6c 75bc 4678 a3bd
00000190: b430 453e 47e1 183e 3e5f dd3d 9757 193e
000001a0: dfd8 a83d 88e3 d63d a6f4 81bd 73ab 9bbd
000001b0: 2ca2 d13c a303 753c 90b0 e7bd 2e10 1abe
000001c0: c68d e1bd 3d43 84bd cc52 38be 6c43 24be
000001d0: 3acb 39be cf8e 2cbe 2cf5 46bc 6fbd adbd
000001e0: 12ff 9dbd a1a0 fdbc 1463 11bd ec69 9fbd
000001f0: 2820 a4bd 3692 4cbe 473b cebd 3746 2fbe
00000200: f136 c0bd 111e 90bd ac00 e4bd 6e62 31bd
00000210: 1853 5abe 2287 dbbd 7736 d4bc dd9e 2cbe
00000220: 8ad8 35be 77dc 1bbe 9ee1 93be b2d9 c0be
00000230: a840 e4be 1763 abbe ddb5 c4be 5b53 c5be
00000240: 66c2 ddbe b844 f2be 21f8 f7be 7722 dfbe
00000250: ad05 a7be 431f e6be f2fd d9be fae3 babe
00000260: 47fa ccbe 33e7 51be a326 50be eee6 8fbd
00000270: f33e a1bd eeef 05be ac8d 9c3d c8bc ec3d
00000280: 016a 5f3e 3777 013e 8103 173e b8a2 233e
00000290: a9c3 4f3d d8fa d33c 4e72 16bd d3e8 043e
000002a0: a480 693d 40de ac3d 7eb4 26bc cda4 86bc
000002b0: 86f3 b53c 8df9 8e3d 0e87 363d e94d d6bd
000002c0: 51b7 d73b 4075 463d 0e23 6dbd 761e d6bd
000002d0: 26fc 81bd 8282 afbd e4be 00be 88b1 1d3c
000002e0: 7fbf a4bc 5a77 16be 9523 aabd 2c6e 10be
000002f0: 56a0 d0bd 63a2 2b3c a539 35bd fd54 41bd
00000300: ea8a 00be ce57 9cbc d224 34bd a2e8 073e
00000310: dc8a 153d 3fb6 a83d 4dc3 993c 5494 963d
00000320: 6b30 5f3d e6a2 d1bd 3d08 9d3c dcd6 83bd
00000330: a4ff 19be 8b2b 17be 118c 7ebd 3dfc 41be
00000340: d989 42be fc48 14be e529 06be e38a 4dbd
00000350: 9914 cfbc abf0 49be 88fb a7bd ea07 30be
00000360: e150 e7bd 7c61 033c c1a6 e3bc 37a1 833c
00000370: 3d01 cbbd 343f 99bc a099 12bd 9a8f 82bd
00000380: 569b 32be 08fc 9fbe 70cb 25be 5fd6 a2be
00000390: bdab 5cbe 6935 05be ae4a 84be 8553 0dbe
000003a0: c23b 68bd d5b3 05be d3bb 03be d93f a2bd
000003b0: f3e0 f1bd 7aad 06bd 8f39 f5bd ebde f6bd
000003c0: 46e4 883a 36c2 2fbe 9a5a 70bd f2ea 0cbe
000003d0: be0c cdbd f0b7 babd 0548 b0bd f42b bfbc
000003e0: 46b2 a13d 475a e2bc 1bfa f5bd 89b8 35bd
000003f0: 0d59 0dbc 3ab5 b9bd 9bd9 11be c3cc 13be
0.04334933 -0.05953737 -0.05385251 -0.067278415 0.05172543 -0.094484925 0.07741453 0.06905289
0.06603048 -0.029498525 0.0804101 -0.113754585 -0.0663339 0.0492682 -0.05210911 -0.06608528
0.036461852 0.017928086 -0.049051546 -0.08631908 0.0869407 -0.020041855 -0.0989484 -0.09943542
0.06788698 0.001963229 0.0019331974 -0.01595306 0.028456248 0.04925917 0.017457666 0.07143637
-0.01941381 -0.112735346 -0.063422605 -0.04683506 0.04511616 0.07417009 -0.08741984 -0.07322648
-0.05962655 0.082347505 0.066332236 -0.026852345 -0.055441078 -0.009682518 -0.0152536435 -0.07676302
-0.035831157 -0.088845484 0.0018763904 -0.034337867 -8.1465456e-05 -0.09628982 0.087719746 0.08994383
0.06736138 0.019782059 -0.051219285 -0.0892533 -0.050540674 -0.039866887 0.014125763 -0.103630506
0.020011157 -0.08082149 -0.057811286 0.074020766 0.05010515 0.03181482 -0.112596504 -0.032667864
-0.08605725 -0.08125006 0.06630477 0.033679664 -0.11008129 0.0032614076 -0.0070670093 0.07465684
0.010761037 -0.06927968 -0.054603674 0.062253222 0.06784762 0.05284468 -0.116970204 0.026606765
-0.051188767 0.030506551 0.06773956 -0.08332871 0.01963312 -0.049757805 -0.0031062649 0.08617648
-0.00092355005 0.0042665843 -0.014979493 -0.07981925 0.1925686 0.14929686 0.10809182 0.14974819
0.0824449 0.10492617 -0.06345491 -0.07601061 0.025590025 0.01495448 -0.113129735 -0.15045235
-0.11013369 -0.06458137 -0.18000335 -0.16041344 -0.18143931 -0.16851352 -0.0121434145 -0.08483397
-0.077146664 -0.030960383 -0.03549488 -0.07783875 -0.08013946 -0.1997765 -0.100699 -0.17116629
-0.09385479 -0.07036985 -0.11132941 -0.04330676 -0.2132076 -0.10719134 -0.025904877 -0.16857477
-0.17758384 -0.1522082 -0.2888307 -0.37666088 -0.4458058 -0.33474037 -0.3842 -0.38540158
-0.43312377 -0.47318053 -0.48431495 -0.43580982 -0.32621518 -0.44945726 -0.42576557 -0.36502057
-0.40034696 -0.20498352 -0.20327239 -0.07026468 -0.07873335 -0.13079807 0.07644209 0.11559445
0.21817781 0.12643133 0.1474743 0.15980041 0.050723705 0.025876448 -0.036730103 0.1297944
0.057007447 0.08440828 -0.010174869 -0.016436005 0.022210848 0.06981192 0.044562392 -0.10464079
0.0065831323 0.048451662 -0.05789476 -0.10455029 -0.063469216 -0.08569814 -0.12572819 0.009624846
-0.020110844 -0.14693967 -0.08307568 -0.14104527 -0.10186832 0.010475728 -0.044244427 -0.04720019
-0.12552992 -0.019084837 -0.043980427 0.13272336 0.03650938 0.08237886 0.018769884 0.0735251
0.054489534 -0.102361485 0.019168967 -0.064374655 -0.15038925 -0.14762704 -0.062145296 -0.18943878
-0.18997897 -0.14480966 -0.13101919 -0.05018128 -0.025278376 -0.19720714 -0.08202273 -0.17190519
-0.11294723 0.008018848 -0.027789475 0.016068084 -0.099123456 -0.018706895 -0.03579104 -0.06375046
-0.17442068 -0.31246972 -0.16190886 -0.31804177 -0.21549888 -0.13008656 -0.25838226 -0.13801391
-0.056697614 -0.13056882 -0.12864618 -0.07922334 -0.11810484 -0.032880284 -0.11973869 -0.12054237
0.0010444007 -0.1716393 -0.058680154 -0.137615 -0.10012196 -0.091171145 -0.08607487 -0.023336388
0.07895331 -0.027630938 -0.120105945 -0.04436544 -0.008627188 -0.09067769 -0.14243166 -0.14433579

fc1.bias f4 [50]
00000000: de72 9ebd 5d3d b63e 939b f73d 04a5 1b3e
00000010: 77b6 d13e 8ac7 b73e 30db 803e 7a95 943e
00000020: 82d6 4b3c 0f4b ee3e 3805 d6bd 7ec2 e23e
00000030: 70d3 a0bd 49cb 7a3e b382 8bbc e5e1 f33c
00000040: e921 1b3f bd62 e63e 9ce5 d73e fb9d 2e3e
00000050: f3e2 7a3e c51c 74bd f12c bebd 0040 f13d
00000060: 85a3 f5bb c3d4 f4bd bc0c 803e 0944 ca3e
00000070: f7c9 833d d4f2 563e 2650 bb3e 04a7 d3b9
00000080: 1eb1 ff3d c4f2 1b3f febe 0a3f 63d6 593e
00000090: 7bdb 913e e6da e1bd 6862 663e b4af 8e3e
000000a0: c97b a73e b07f 923d d6d7 b5bc bdb2 a13c
000000b0: f876 003f ca87 b53e 7bb7 b03e 37f0 f9bc
000000c0: db5e 9e3e 57f8 893e
-0.07736753 0.3559369 0.1209022 0.15199667 0.40959522 0.35894424 0.25167227 0.29020292
0.012441279 0.4654164 -0.10450214 0.4428901 -0.078528285 0.2449161 -0.017030096 0.0297708
0.6059862 0.44997206 0.42167366 0.17052452 0.24500637 -0.05959775 -0.09285916 0.11779785
-0.0074962997 -0.119546436 0.25009716 0.39505032 0.06435006 0.20991069 0.36584586 -0.00040369492
0.12484954 0.60917306 0.5419768 0.21273188 0.28487763 -0.1102808 0.22498477 0.27868426
0.32711628 0.07153261 -0.022197645 0.01973855 0.5018153 0.3545516 0.34514984 -0.030510051
0.30931744 0.2694728

fc2.weight f4 [25, 50]
00000000: 061a 883d 8674 0ebe 6d64 f6bc 0bf9 b4bd
00000010: 4a04 a0bc bfaa db3d edfb 10bc 4e2e ca3a
00000020: f324 5b3d 8b4e 863c 1600 903d 2266 cbbd
00000030: 543d a3bd bfdb 223d 0d03 48bd 7221 a0bc
00000040: 8d4b 023d 3a0c 6c3d b952 11be 517c 52bd
00000050: c42d 2139 7532 9abc c64a 403d c392 3abe
00000060: 7296 ae3c 6f09 e83d c844 0ebe c71a 753d
00000070: 8bd8 01bd c874 673c 74a7 6abc 8769 3c3c
00000080: 7bfa 21be b4ee 0b3d 8e0a 03be d83b f7bd
00000090: 72ff 4a3d 086a 103e 9ec2 ddbd 77f5 9e3d
000000a0: d60f ba3d 4da7 edbd ad0c 343d 7e11 5ebd
000000b0: 8268 a83d 0db8 223d 5edc 14be 439d d3bd
000000c0: 77e5 0bbe 5576 983d 90f2 ca3d d518 b83e
000000d0: ced3 f9bd 3152 0fbe 88b0 4ebe 08a3 a93e
000000e0: 37c2 6dbe 2f36 9dbe 389b 24be 905d 333d
000000f0: 9819 c53d fcd7 82bc ed0e 15be ee89 b63d
00000100: 861e f8bd 6bff 89bd 30f2 283e d4d4 b43e
00000110: cc3d 37bd 99f0 33be ac0f b03e 224c 01bd
00000120: e7d9 4ebc d701 d9bd fd61 51bd cf2c f63d
00000130: 791b de3e f23f 9d3e 428a 833c ecbb 713d
00000140: 7797 03bb 5132 46bd 5808 87be b3b5 cf3e
00000150: dd28 773e fabf 22be d67a 69be f287 ef3d
00000160: d83a 1fbe 618d b5bd 4103 773c 6b86 b03d
00000170: 4fa7 cbbd 524e cdbc 7cb3 d83e d063 fc3e
00000180: 6f83 bd3e ba51 89bc 7741 c13e ef1c c43c
00000190: dac7 afbd 7f65 103e 2ae0 5c3e 8de6 963d
000001a0: 8f96 e23d 8075 d9bc ff62 753e 9c6a 673d
000001b0: 81a7 83bd a12f 2a3d 710e a43d 0a7c 643d
000001c0: a856 1e3e 6380 8f3e f4b5 89bd 8773 473e
000001d0: 6d7e 173e ca2e 063d 3e6e 29be 87e9 9d3c
000001e0: 0820 c13e d955 ec3d e772 98bd 400a b33d
000001f0: ab99 373d b808 33bc 599e f6be 1af4 f2bd
00000200: d78d 923d fbae f9bb 4caa 72bd 5c07 1e3e
00000210: 7c43 25bd 9b27 f13c e446 1b3e a6de 6abd
00000220: 6fa0 4bbe d8f0 f83d f0ab 8a3e 50de 763e
00000230: 7d82 8f3d 62e0 5a3e 9724 113d 6525 a13d
00000240: b14a 123e 64e9 29be a2a2 babe b31a 173d
00000250: 07ed afbd 8a1f a3bd cac1 813d 7abc 883d
00000260: 050e da3d f76a 00be bc3f 5dbc 556e 18be
00000270: 8ae9 bd3d c0a5 7d3d 67fe e23d 04f5 b8bd
00000280: f634 a9bb b126 a0bd 3e68 95bc 06a5 febd
00000290: c933 6d3d e58a 20bd ca48 2abe 75f2 84bc
000002a0: 59b7 ae3d 17c6 15be 6188 c53d 2eec edbb
000002b0: 9133 09be ac4f c43d 8975 4f3d 9715 fc3d
000002c0: a105 be3b 1a19 2abe 5862 02be f053 dfbc
000002d0: cd42 373d 04ba 253d bb7a b0bd 46e2 95bd
000002e0: ab3c fcbc 003c f9bd f9eb e63d 5002 32bd
000002f0: 0542 11ba a45f 54bd 01b5 0bbd 465b 66bd
00000300: a2de aa3c 692f a5bd e212 bbbd f948 81bd
00000310: 28ed 26bd 32ad f9bd 1ffe e53d c75a abbd
00000320: a2cb 713d f58e ce3e 5102 513c a3fe acbd
00000330: 6020 91be e05d d23c f457 45be f503 d5be
00000340: b082 68be c7cb 90bc 857d c33c e8fe 3dbd
00000350: b0f5 733d 45b9 a73d 874d 12be 6a88 79be
00000360: 5b4b 763e 382b bb3e c9fe 92bd 2f3e 57be
00000370: dd61 b53e c771 d0bd 0d5d 643d d3e0 39be
00000380: dfaa 3e3d aefc 823d 6465 23bc 6610 273e
00000390: f045 1bbc bb5e a1bc ba38 1dbe 2339 b93d
000003a0: eef1 e0be 0052 493e 0cc4 e43d cc23 9abe
000003b0: e1c1 d6be 92a9 07be 8d99 51be 806e 00be
000003c0: bc5a 0bbe 0d7d 2ebe 601f 933d 1561 9fbd
000003d0: 2837 323e e27a 123f 8d40 703e 5917 8d3d
000003e0: e2d0 9e3e e56c 87be ed72 06bd aa8b 533e
000003f0: 8f2c febc 3cd6 e3bd 1e3b 8d3c 92fb 6c3e
0.066455886 -0.13911638 -0.030077184 -0.08836564 -0.019533295 0.107259266 -0.008849126 0.0015425177
0.053502034 0.016394874 0.070312664 -0.0993159 -0.07970682 0.039760347 -0.048831034 -0.019547198
0.031810332 0.057628848 -0.14191712 -0.05138809 0.00015371206 -0.018822888 0.04694631 -0.18220048
0.021311972 0.11329924 -0.13893425 0.05983999 -0.031700652 0.014126964 -0.0143221505 0.011499769
-0.15818207 0.034163192 -0.12796995 -0.12071961 0.049560018 0.14102948 -0.10828136 0.077616625
0.09085052 -0.11604176 0.0439574 -0.0542159 0.08223058 0.039726306 -0.14537188 -0.1033273
-0.13661753 0.07444445 0.099095464 0.35956445 -0.12198602 -0.13996197 -0.20184529 0.33132195
-0.23218618 -0.307054 -0.16074836 0.0437904 0.09624022 -0.01597213 -0.14556475 0.08913027
-0.12115197 -0.0673817 0.16498637 0.35318625 -0.04473667 -0.1757225 0.34386957 -0.031566747
-0.012625194 -0.10596054 -0.05111884 0.12020265 0.43380335 0.3071285 0.016057137 0.059017107
-0.0020079294 -0.04838783 -0.26373553 0.40568313 0.24136682 -0.15893546 -0.22800764 0.116958514
-0.15549791 -0.088648565 0.015076459 0.08619388 -0.09944021 -0.02506176 0.42324436 0.492949
0.37014338 -0.016762603 0.37745258 0.023939578 -0.085830405 0.14101218 0.21569887 0.07368193
0.11063873 -0.026545286 0.23963545 0.056498155 -0.06428433 0.04154933 0.08010567 0.055782355
0.15462744 0.2802764 -0.06724158 0.19477664 0.14794321 0.032759465 -0.1654596 0.019276394
0.3771975 0.11539812 -0.07443791 0.087421894 0.044824284 -0.010927372 -0.48167685 -0.11862965
0.0715596 -0.0076197363 -0.05924444 0.15432495 -0.04034756 0.02943783 0.15163761 -0.05734124
-0.1988542 0.12155312 0.27084303 0.24108243 0.070073105 0.21374658 0.035435285 0.078684606
0.14286305 -0.16592938 -0.36452204 0.036890697 -0.08590131 -0.07965 0.063357905 0.06676574
0.10647205 -0.12540804 -0.013503965 -0.14885838 0.0927306 0.06192565 0.1108368 -0.09031108
-0.005163784 -0.0781988 -0.018238183 -0.124338195 0.057910714 -0.03919496 -0.1662933 -0.016228894
0.085310645 -0.14626347 0.09645153 -0.007260821 -0.13398577 0.09585509 0.0506492 0.123088054
0.005799011 -0.16611138 -0.12732828 -0.027261704 0.04474144 0.0404606 -0.08617159 -0.07318549
-0.030790647 -0.12169647 0.11275477 -0.043459237 -0.0005541149 -0.051849023 -0.034108166 -0.05623939
0.020858113 -0.080656834 -0.09134461 -0.063127466 -0.040753514 -0.121912375 0.112301104 -0.08366924
0.05903209 0.40343443 0.0127569 -0.084470056 -0.28345013 0.025679529 -0.19271833 -0.4160458
-0.22706103 -0.017675294 0.023863563 -0.046385676 0.059560478 0.08189634 -0.14287387 -0.24368444
0.24052183 0.3655641 -0.07177503 -0.21019815 0.35426226 -0.10177951 0.055752803 -0.1815217
0.046549674 0.06395851 -0.009972904 0.1631485 -0.009477124 -0.019698491 -0.1535367 0.09044101
-0.43934578 0.19660187 0.111702055 -0.30105436 -0.41944793 -0.1324828 -0.20468731 -0.12542152
-0.13608831 -0.1703989 0.07183719 -0.07782189 0.17403853 0.57218754 0.23462124 0.06889219
0.3101874 -0.26450267 -0.032824446 0.20658746 -0.031027107 -0.11124846 0.017240103 0.23142841

fc2.bias f4 [25]
00000000: 7bc2 a2bb ff66 ef3e c30a 713e 0292 533d
00000010: 7e87 333e 91bd 233e a70b 9f3e fbe8 893e
00000020: ff08 583e 654b 3e3e 8663 8b3d 00fc 663c
00000030: 088f 523d 2cea 023f c1db 0abb 32af 8c3e
00000040: 28fe 08bd ffc1 0bbe b9fa 4d3e 0c34 a63d
00000050: 3912 683e fe6c 2f3e 981b b1bd cef3 8cbd
00000060: cb1b f93d
-0.0049670315 0.46758267 0.23539262 0.051652916 0.17532155 0.15990283 0.31063578 0.26935562
0.21097182 0.18583448 0.06806092 0.014098167 0.051405936 0.5113857 -0.0021188112 0.27477413
-0.033445507 -0.13648222 0.20115174 0.08115396 0.22663201 0.17131421 -0.08647841 -0.068824396
0.12163504

fc21.weight f4 [5, 25]
00000000: 7e05 53bb 180c 453d de55 d0be 0ec8 0c3e
00000010: 1416 f6be 1f34 7d3e 8f5b 7f3d aaa0 843d
00000020: 9e75 c6be cfa5 8f3e a7f7 4b3d c9f9 39bd
00000030: 95a7 563e dbca a63d 52f9 ea3c 04a7 cfbd
00000040: 9662 bebd efb9 c5bd 8d54 553d c6b4 a63e
00000050: dd6b bb3e 543c 8cbe b04b a3bd b608 b7bd
00000060: b8a9 3dbe 273f 7abd fd0c c1bc e5f8 b73d
00000070: 8ac2 0a3e f4b9 44bb 1724 2fbd 5c9f 14bd
00000080: bc19 e73c 498b 4ebd 7e43 da3b e968 c4bd
00000090: 0367 77bd 7735 063d 4971 a2bc fb2c 2a3e
000000a0: d3b4 13bc 695f 463d 71d7 aabe 1fcb 53bd
000000b0: a02c 64bd fb55 c5bb 58e4 98bd faf3 d7bd
000000c0: 37a3 1abc 8c07 783c 3895 433e 61c4 96be
000000d0: 7819 2e3e f8f2 27bd 0ed3 b6be c81a d3be
000000e0: 4378 3e3d a63c 52be 2b9a 51be 74f7 c2be
000000f0: d970 57bd 916a 60bd 4ac0 0a3d 6327 723e
00000100: 4775 263e 5290 b5bd eba2 ed3d 4bce 2bbc
00000110: d8f1 6bbd 06d6 fa3c eccd 763e d178 743e
00000120: 314b 313e 6d4f 533e 3358 57be b40a 22be
00000130: 1b78 4bbb a8ef ef3c 3259 573d c40e 08bd
00000140: dd07 d13c 0d45 3cbc a889 c03b d4c1 4a3c
00000150: c37b 1a3d 5905 893c 4eeb debd c86f 49bc
00000160: 04ac b9b9 f431 15be 0eb6 a73c 68b0 be3d
00000170: 41aa b93b 2640 983c f9c7 dbb9 5912 913b
00000180: 1cff beba e068 0abe 8f95 46bc 5cae b1bc
00000190: f625 133e e5e3 9a3e cee2 143d a134 bf3d
000001a0: 1d31 263e 2105 37be 5f40 b03e 398c 57be
000001b0: 9afa 81be dcd9 c23d 33de 4abe 2230 0b3e
000001c0: 0586 81bc 45ca 41bd 6eae dd3d 332f 96be
000001d0: 7795 173e 2f65 42bd 02a3 883e ebd9 98be
000001e0: 0da5 0f3d 2bd0 a8bd 36c9 2e3b 8add 003e
000001f0: 8eb2 c0be
-0.0032199319 0.048107237 -0.4069051 0.1374819 -0.4806372 0.24726914 0.062343176 0.06475957
-0.3876161 0.2805619 0.049796727 -0.04540423 0.20962365 0.0814416 0.028683338 -0.101392776
-0.092961475 -0.09654605 0.052082587 0.32559794 0.3660573 -0.27389777 -0.079734206 -0.08937208
-0.18521774 -0.061095383 -0.023565764 0.0898302 0.13550773 -0.0030018063 -0.042759027 -0.03628479
0.028210513 -0.0504258 0.0066608777 -0.095903225 -0.060400974 0.03276583 -0.01982941 0.16618721
-0.00901528 0.048430834 -0.33367494 -0.051707383 -0.05570662 -0.0060222126 -0.07465428 -0.10544582
-0.0094383275 0.015138518 0.19099891 -0.294467 0.17001903 -0.041003197 -0.35707897 -0.4123137
0.04650141 -0.20530948 -0.20468967 -0.38079417 -0.052597854 -0.05478913 0.033874787 0.23647837
0.16255675 -0.088654175 0.1160334 -0.010486196 -0.057603687 0.030619632 0.2410199 0.23874213
0.1731384 0.20635767 -0.21029739 -0.15824395 -0.003104693 0.029289082 0.052575298 -0.033217207
0.025516445 -0.011491072 0.005875785 0.012375314 0.037715685 0.016726183 -0.108847246 -0.012294717
-0.0003541411 -0.14569837 0.020472553 0.093109906 0.005666048 0.018585276 -0.00041919926 0.004427236
-0.0014571878 -0.13516569 -0.0121206185 -0.021689586 0.1436995 0.30251995 0.03634911 0.0933621
0.16229673 -0.1787305 0.3442411 -0.21049584 -0.25386506 0.0951421 -0.19811325 0.1359258
-0.015810976 -0.04731204 0.108242854 -0.29332885 0.1480311 -0.047459777 0.26686865 -0.29853758
0.035069514 -0.0824283 0.0026670224 0.1258451 -0.37636226

fc21.bias f4 [5]
00000000: 707c 01bd eeb7 1d3e 2eca c2bd 4071 49bd
00000010: 1f35 3ebe
-0.031612813 0.15402195 -0.09511219 -0.04918027 -0.18574952

fc22.weight f4 [5, 25]
00000000: 6f3c 01bd 1a43 a4bd 885a 3abe d447 ef3c
00000010: 6863 a8be 267a 8a3e 3130 90be af42 18be
00000020: 52e3 a63e 7cf7 9abe 24a7 dabd e153 b2bc
00000030: 425d 353f 47d2 11bf f5c1 a33d adcb 87be
00000040: 0da9 69bd df21 09bd 6ae1 13bf 7103 f1bd
00000050: c0e5 0a3e 5130 c23d b484 17be 394d 08bd
00000060: aab3 bcbe 5cdd c83d 8a87 ed3c 40c5 14bd
00000070: 8962 adbc ea92 7e3b 55b9 573c 5e4b 463d
00000080: 3418 45bd 6d73 4a3c 6c81 aebc 75ce 03bd
00000090: cd8f b53b bd0d 55bc 642f 1b3d ac96 98bd
000000a0: d070 60bc 1505 9fbc c1ad 293d 8a87 29bd
000000b0: bde0 853c 927d 8fbc 8da1 293c 2e77 77bc
000000c0: 7851 3cbd 3b83 2a3c f03c 9bbd b261 07bd
000000d0: 8900 67be f5a4 59bd 79a4 323f ca90 803e
000000e0: 9ac8 aabe a86f f5be 876b d13c 7289 1b3e
000000f0: b961 7abd bfd7 d33d 6dc3 923d b029 b5be
00000100: f741 2f3e 6c87 d83e aedd 9d3d 8903 d83d
00000110: a40c 87be 647d b93c 9d1a 41bd 80d2 55be
00000120: 1b3c 173e 5b6b df3e 0cea f83e 7663 2a3e
00000130: 145b e9bc cd10 4b3d 04f3 3d3e 5dc2 b6bb
00000140: cc85 1cbd 2fb5 d2bd db7b 9b3d a8f5 90bc
00000150: 4aec 733c 48c5 72bd 3813 21be 35c7 093c
00000160: 35e5 78bd 3beb bd3d a6f8 db3c 8526 00be
00000170: 8f42 45bc 1f82 913d 7ba3 0dbd 7414 1a3d
00000180: 1c9e caba 242f 533e d2a9 0b3d eadd acbc
00000190: e2a0 fc3c f87b 7bbd 7d72 2c3e c07a f3bd
000001a0: 8ed6 2fbb c0ab a93e cb3e bbbe 8fef 04bf
000001b0: f9d1 5fbe e0f3 aabe dab5 b73d dc98 353c
000001c0: 4c16 0cbc 2087 eebe 901e 3ebe 26cf 5f3e
000001d0: 1080 ecbd 5b3f d4bd e3bb f1bd 929b ba3e
000001e0: 2e3e c2bd 6ee2 c8be 5796 4cbe 716c 1c3f
000001f0: d668 643e
-0.031551775 -0.08020611 -0.18198597 0.029209055 -0.3288834 0.27046317 -0.28161767 -0.14869188
0.32595307 -0.3026694 -0.10676411 -0.021768512 0.70845425 -0.5696148 0.07995979 -0.2652258
-0.057045985 -0.033479568 -0.5776583 -0.117682345 0.13564205 0.09481872 -0.14796716 -0.03327677
-0.36855823 0.09807846 0.028995294 -0.036320925 -0.02116515 0.0038844892 0.013166745 0.04841172
-0.048118785 0.012356621 -0.021301948 -0.032179315 0.005540824 -0.013003764 0.037886992 -0.074506134
-0.013698772 -0.019411603 0.04142547 -0.041389026 0.016342515 -0.017515931 0.010353458 -0.015104098
-0.045976132 0.010407264 -0.07579982 -0.033052154 -0.22558798 -0.05313583 0.69782215 0.25110465
-0.33356172 -0.4793675 0.025563968 0.1518915 -0.06112835 0.10343885 0.07166181 -0.35383368
0.17115007 0.4229082 0.07708298 0.10547549 -0.26376832 0.022642799 -0.04714452 -0.2088108
0.14769022 0.43636593 0.48616064 0.16639504 -0.028485812 0.04957657 0.18549734 -0.005577369
-0.038213536 -0.10288464 0.07591983 -0.017695263 0.014887879 -0.059270173 -0.15729988 0.008409311
-0.060765464 0.09273382 0.026851963 -0.12514694 -0.012039795 0.07104897 -0.034579735 0.037617162
-0.0015458497 0.20623451 0.0340975 -0.02110191 0.030838434 -0.061397523 0.16840549 -0.11888647
-0.0026830765 0.33138847 -0.36571345 -0.5192804 -0.21857442 -0.33389187 0.08970232 0.011083808
-0.008550238 -0.46587467 -0.18566346 0.21856365 -0.115478635 -0.103636466 -0.11803415 0.36446816
-0.09484516 -0.39235252 -0.19979225 0.6110297 0.22305617

fc22.bias f4 [5]
00000000: 0d5f 05bf a388 c0bc 7c50 58be 3727 fa3c
00000010: 1a82 1ebf
-0.5209816 -0.023502653 -0.21124452 0.030536277 -0.6191727

fc3.weight f4 [25, 5]
00000000: 1b05 a93d 8239 b3bb a6b2 eb3e b58a e0bc
00000010: c1e0 6ebf 422b 813f 58ee d1bc d8a4 f43e
00000020: b13e debc 59c0 02bf 8e07 97bf f996 ab3c
00000030: 795e 96be cb5f 2fbc 4a55 a13e 9e41 42bf
00000040: 9f91 f83c 16d8 64be 9374 ea3c f635 e9bc
00000050: ac79 c3be 71ce d2bc 0740 10bf 034c 653a
00000060: 2fc4 29bf 037d e53e 96ed 68bc 9fe7 e3be
00000070: 7684 703b d1bf 893f a7c1 0abe c40d a0bc
00000080: d998 f33e 0519 85bb 30a7 06bf a49d 413e
00000090: 3254 87bc 54e7 59be 058c 213b 8b95 bfbd
000000a0: 54d1 583e c631 2fbc 4514 293f 632f 393b
000000b0: 63c0 ea3e e803 f23e fc7d 053c fd91 283d
000000c0: 3286 52bc e7cd d9be 6fcc 60bf 765c 83bc
000000d0: 7b39 04be 6a26 9fbc 859d 82be 9013 bebd
000000e0: d1b1 a9bc c93b 5b3e 8a65 3c3c 1ef5 96bf
000000f0: bc56 0c3e 4111 463d 4a31 95be e3a6 a0bd
00000100: 6cde 203d e192 7abe a47d 133c f194 52bf
00000110: b1c9 e3ba 1f81 023f 9fd9 e2bd a000 cd3c
00000120: 782e 40bc 1d47 1f3b 6d98 81bf abe5 d1bd
00000130: 0b59 cdbd 62ee 80be 6c2b 303d 2e41 e03c
00000140: 5b20 fb3e b2df 993c 190e 4e3e d7bc 90bd
00000150: 6463 2bbd 4dcd 3a3f 279b 8b3c 4bc2 90bd
00000160: e2db 993c fa46 2c3d 836f 56bc b046 5a3a
00000170: 3cd3 28bf af13 0e3c 3942 96bf 4b8f 833f
00000180: d120 d4bb 7a50 ee3d ca75 b5bb 4c39 bbbe
00000190: 9172 3dbe 369d d23c 62ad c53e ab67 afbc
000001a0: a6bd 75bf b6a0 f7be ff86 1dbd b479 053f
000001b0: f2c6 c9bc fe88 6e3c c050 36be cfaf 783c
000001c0: 9bb0 013f 715c df3b 4cdb f63e 904b b73c
000001d0: 3746 2b3d 52a5 3f3d d87b 56bb af3c cabe
000001e0: a53d 153f 487d e6bb 3b3d e0be adc0 d53c
000001f0: b19a 19be
0.08252927 -0.005469502 0.46034735 -0.02740989 -0.933117 1.0091326 -0.025626346 0.47782016
-0.027129503 -0.5107475 -1.179918 0.020946013 -0.29368952 -0.010703991 0.31510383 -0.75881374
0.030342875 -0.22348055 0.02862004 -0.028468113 -0.38178766 -0.025733205 -0.563477 0.00087469834
-0.6631498 0.4482194 -0.014216801 -0.4451265 0.0036700047 1.0761663 -0.13550435 -0.019537814
0.4757755 -0.0040618205 -0.5259886 0.18907791 -0.01651964 -0.21279651 0.0024650109 -0.09354695
0.21173602 -0.010693019 0.66046554 0.0028257004 0.45849904 0.47268605 0.008147713 0.04115485
-0.0128493775 -0.42539904 -0.8781194 -0.0160353 -0.12912552 -0.019427497 -0.25510803 -0.09281075
-0.020714672 0.21409525 0.011498818 -1.1793554 0.13704962 0.0483563 -0.29139167 -0.07844331
0.039274618 -0.24470092 0.009002123 -0.82258517 -0.0017378834 0.50978273 -0.11076664 0.025024712
-0.011729829 0.0024303861 -1.0124642 -0.10248884 -0.10026749 -0.25181872 0.04301016 0.02737483
0.49048123 0.018783424 0.20122565 -0.07067268 -0.041842833 0.72969514 0.017041756 -0.070683084
0.018781606 0.042059876 -0.01308811 0.00083265733 -0.6594732 0.008671685 -1.173896 1.0278105
-0.0064736386 0.116364434 -0.005537723 -0.36567152 -0.18500735 0.02570973 0.38608843 -0.021411737
-0.95992506 -0.483648 -0.03845882 0.5213883 -0.024630997 0.014559029 -0.17804241 0.015178635
0.50660104 0.00681644 0.48214185 0.022374898 0.04181501 0.04678852 -0.0032727625 -0.39499423
0.5829719 -0.0070339777 -0.43796715 0.026092852 -0.15000416

fc3.bias f4 [25]
00000000: 69a5 373e 5dc8 9abe 15c3 023f bc46 703e
00000010: 7a01 ecbd d401 0dbe c3f9 c03e 648f 453f
00000020: 721e 26be 6bce 023f 9af0 1f3e 26ff 98be
00000030: 4a23 443f a983 a23c cd92 97be a2e2 3f3f
00000040: b13d 7d3d f757 0c3f c7bb f13d 2409 4d3e
00000050: 245e 373e 3463 f2bc 01e8 edbd e616 383f
00000060: 3d6d 493d
0.17934193 -0.3023099 0.5107892 0.23464483 -0.11523719 -0.13770229 0.37690553 0.7717192
-0.16222551 0.5109622 0.15619126 -0.29882163 0.76616347 0.019838171 -0.29604188 0.7495519
0.06182641 0.54821724 0.11803394 0.20023018 0.17907006 -0.02958832 -0.11616517 0.7190994
0.049176443

fc4.weight f4 [50, 25]
00000000: 8b07 1d3e 5b73 943e 29b4 43bd d502 b73c
00000010: 1012 70be 0cac 4ebe e8ad 803c afde b13e
00000020: cd89 6bbf 9083 ec3e 040e 823e 7d85 5fbe
00000030: 4bf9 8d3d 38ab d7be 4bc3 1abe 5536 913e
00000040: 3298 0a3d 3c18 3f3e a05a e8be a726 a33e
00000050: a4d0 723e 386b 90bd 40f9 d8be d36f 6e3e
00000060: 7bac 673e 5ef4 c2be 3556 d13d 6990 fc3d
00000070: c665 863e f182 af3e 1eac 90be 01fc b6be
00000080: afab 193e 7e23 dfbe 4553 bd3d e793 573e
00000090: a505 bcbe 071e ce3d 094b bdbe b58e 66be
000000a0: 491c 653e 127f cd3d aeef 233e 5053 34be
000000b0: cc93 a13e 2bd7 b5be 401b 55bd 67e0 ecbe
000000c0: 28f9 493e a309 9c3e c459 443e eef5 8bbc
000000d0: 926d 053f 3e48 a93e 0daa 02bd 1d9e 3e3e
000000e0: b858 6cbd 5455 6b3e 0a7d b4be 4d2f 1f3e
000000f0: 16a2 c73e 44f7 afbd 2746 243e f791 833d
00000100: e569 033d 2de2 323e ba05 e03d 769b 043c
00000110: e6ac 22bd 16c7 983d c07c 43bc 0671 ee3d
00000120: e8fb 5fbd acca 1d3e a1a3 acbd 97c1 f53e
00000130: d76f 193f 3e9e b9be 7968 f63d b666 2cbe
00000140: 18af 52be 7e39 b63e 0ff4 f93e 2e67 a5bd
00000150: 6bf2 de3e 454a 413e c2f7 bfbd 2816 6f3e
00000160: 8654 c7be 0293 3ebe 6a2f b53e e087 913e
00000170: f152 613e afc5 96be a16a bc3e ec51 ee3d
00000180: 9dd2 6b3d dd35 86bc 85af 893e 7e00 c43e
00000190: 76fc ccbe 760f 51be 4836 b23e 8666 e03e
000001a0: 414b 883e cd60 373f 34ea 84be 9479 e43e
000001b0: a988 85be a68a 49be 8f1b 443e d5bb 643d
000001c0: 0108 1b3f 1f4b 513f b180 a53d 2ef1 143f
000001d0: 71ba 2fbe 50e6 51bc 9430 313c e985 51be
000001e0: f334 fdbd ddc1 0fbe aff5 b6be 788c 1e3d
000001f0: 157a f93d a852 0c3f cb4a c53e 57cf 67bd
00000200: b549 903d 6e01 9d3e 1226 47bf ee3f e73e
00000210: c601 bcbc 6609 89be d7ae 493e 41f6 f03d
00000220: 6a87 103e 00b0 6e3e dee1 bdbe adb4 573e
00000230: fa42 7b3e 6fca 8f3e f3f2 203c df0d 133b
00000240: 6337 d23d 1b5f e13e 70ee a33e ced4 863e
00000250: 66d2 5b3e 9012 8d3d 0247 653e a5bd a33e
00000260: 1723 243e 2469 873d e01a f7bc d9e9 0abf
00000270: 7c71 b53d cf4c 473e fa2b 0fbf 98a9 8e3e
00000280: ce7a a83e 01f2 ef3d 3630 23be 8aa9 85be
00000290: a64c 8abd bffd 97bd cc2c 2b3d f83c b33b
000002a0: ef81 a6be a943 8d3e 6141 f2bd 0d00 44be
000002b0: 2aef 70be 1466 253e e7e4 b73d cc75 b83e
000002c0: 0e37 513d 13d3 30bc e298 f43d e491 a33e
000002d0: 1c19 03bf 5ee4 853e 8f64 923c 21df c6be
000002e0: 1508 4b3d 29fe 8b3e 7f4a 02be cfff e0bd
000002f0: 0def 5c3d 4156 e0bd 29a6 26bc 852a 99bc
00000300: 49b4 e1bd eff3 41bd e14e 5f3e 2448 e03e
00000310: 6a7b 34bd ae0c 05bf 6ea8 133e 1eb9 133e
00000320: cc5b 323e ce78 f13e 8e3d 703e 8567 063d
00000330: 98a0 223d ad99 20be bd41 1dbe d89d b73e
00000340: efad 42be 1d4a 763e 231b 92bd 8ef8 633e
00000350: 1803 16bd 9ff3 9dbe 9a4c c5bc f43f 0fbd
00000360: 04f6 45bd 0279 1a3e 0171 11bc f3ac 6c3d
00000370: 0f83 463e af2d bebd 6000 14be 63a4 1e3d
00000380: 57f0 5f3c 826d 0b3d f448 88bd 7da8 dcbd
00000390: c288 ec3d eda9 b33d 12e5 c53d 7523 533e
000003a0: d1bb ab3e 20b6 32be 13e6 4f3d 6a9c 993d
000003b0: 6a15 e13e 02f2 c63e ca2c 19be 4aa4 a53e
000003c0: 1c19 943e a799 10be 468c cb3e 6896 fc3e
000003d0: 4181 ad3d a71b 2ebd 40e3 e43d df6c 67be
000003e0: c8f8 0fbc c1fc 0a3f 2873 2bbd d6f3 45bf
000003f0: 924f f53e a4fa e03e 4185 443d 4d94 12bc
0.15334909 0.2899426 -0.047779236 0.022340218 -0.2344439 -0.20182818 0.015707925 0.34740207
-0.9200714 0.46194124 0.25401318 -0.21828265 0.069323145 -0.42122817 -0.15113561 0.28361765
0.03383655 0.18661588 -0.4538164 0.31865427 0.23712403 -0.070517 -0.42377663 0.23284845
0.2262439 -0.38077062 0.10221521 0.123322316 0.26249522 0.34279588 -0.28256315 -0.3573914
0.15006898 -0.43581766 0.09244398 0.21052514 -0.36723056 0.10064321 -0.3697131 -0.22515376
0.22374071 0.10034002 0.160094 -0.17609906 0.31558073 -0.35515723 -0.05202794 -0.46264955
0.19723952 0.30476102 0.19174868 -0.017085042 0.52120316 0.3306293 -0.031900454 0.18615003
-0.057701796 0.22981769 -0.35251647 0.15545388 0.3899085 -0.08592084 0.16042386 0.06424325
0.03208341 0.17469092 0.10938592 0.008093705 -0.03971567 0.07459848 -0.011931598 0.11642651
-0.054683596 0.15409344 -0.08429647 0.4799926 0.5993628 -0.36253542 0.12031645 -0.16836056
-0.20574605 0.35590738 0.48819014 -0.080763206 0.43544325 0.18875988 -0.09373428 0.23348296
-0.38931674 -0.18610767 0.35387737 0.28423977 0.22004296 -0.29447696 0.368001 0.11636719
0.057573903 -0.016383106 0.26891723 0.38281626 -0.40036362 -0.20416054 0.34807038 0.4382822
0.26619914 0.7163208 -0.25959933 0.44624007 -0.26080826 -0.19681796 0.19151138 0.055843193
0.6055909 0.8175525 0.080811866 0.5818051 -0.17160966 -0.012811258 0.010814805 -0.20461239
-0.12363615 -0.14038797 -0.35734317 0.03870818 0.121814884 0.54813623 0.38533625 -0.05659422
0.070453085 0.30665153 -0.77792466 0.45165962 -0.022950064 -0.26764983 0.19695602 0.11765719
0.14114156 0.23309326 -0.37086385 0.21065016 0.24537268 0.28084132 0.009823549 0.0022438688
0.102644704 0.44017872 0.3201785 0.26334232 0.2146698 0.06888306 0.22390369 0.31980625
0.1602901 0.06611851 -0.030164182 -0.54263073 0.08859536 0.19462894 -0.5592648 0.27863765
0.32906193 0.117160805 -0.1593636 -0.2610591 -0.06752901 -0.07421445 0.04179077 0.0054699145
-0.32521006 0.27590683 -0.11828876 -0.19140644 -0.23528734 0.16152221 0.089792065 0.36027372
0.051077895 -0.0107925115 0.119432226 0.31947243 -0.5121019 0.26150793 0.017870216 -0.3884211
0.049568255 0.27342346 -0.1272373 -0.109862916 0.053938914 -0.109539516 -0.010171452 -0.018697033
-0.11020715 -0.047351774 0.21807434 0.4380504 -0.04406301 -0.5197247 0.1441972 0.14426085
0.1741783 0.4716248 0.23460981 0.032813568 0.039703935 -0.15683623 -0.15357108 0.35862613
-0.19011663 0.2405171 -0.07134082 0.22262785 -0.036624044 -0.3084993 -0.024084378 -0.0349731
-0.048330322 0.15085223 -0.00887704 0.057782125 0.19385932 -0.09286057 -0.14453268 0.03873099
0.013668141 0.03403998 -0.0665454 -0.10774324 0.11549522 0.08772645 0.09662832 0.20618995
0.3354173 -0.17452288 0.050756525 0.07500537 0.4396165 0.38856512 -0.14958492 0.32351905
0.28925407 -0.14121114 0.39755458 0.493335 0.08471919 -0.04250684 0.11176157 -0.22600125
-0.008787341 0.5429192 -0.04185787 -0.7732519 0.4791227 0.43941224 0.047978643 -0.0089464905

fc4.bias f4 [50]
00000000: 6bcb b73e 646b eb3d 3bf4 623e 298b 263e
00000010: 4870 a33d 5c4d 323e 76b3 6e3d 3393 843e
00000020: 2526 a93e 8f19 253e 6250 b93d e4b8 783e
00000030: d87e ae3d 58e0 cb3e 85a3 143e 56f8 0b3c
00000040: 9729 f43d ed39 8c3e 9686 b83c f09d c53e
00000050: 76e9 30be 9a48 c83e c66e a23e 489a ca3e
00000060: d221 1b3e 8d3e 043e 58a1 4cbc 79ca 203e
00000070: d68b 5c3d a9b4 603e 41fe 893e d061 ad3b
00000080: c812 473d 531f 48bd cd30 153e c9b7 ba3d
00000090: 77df 99bd 9e72 6b3e c238 ac3e 51f8 693c
000000a0: a8fc fbbd 3595 153d a9c2 cbbe 603f 21be
000000b0: 2624 4abe af78 9f3d 4a2d 54be a392 8a3e
000000c0: 1325 213e b47a 73bd
0.35897383 0.114950925 0.22163479 0.16264023 0.079804 0.17412323 0.058276616 0.25893554
0.33036914 0.16123031 0.09048535 0.2428928 0.08520287 0.39819598 0.14515503 0.008543095
0.11921995 0.27387944 0.022525113 0.3859706 -0.17276558 0.3911789 0.31725138 0.39570832
0.1514962 0.12914486 -0.012489639 0.15702237 0.053844295 0.21943916 0.26951793 0.005291201
0.048601896 -0.048857998 0.14569397 0.091170855 -0.07513326 0.22992942 0.33637053 0.014280395
-0.1230405 0.036519248 -0.3979695 -0.15746832 -0.19740352 0.077866904 -0.20720401 0.27065
0.15736799 -0.05944319

fc5.weight f4 [100, 50]
00000000: 5d27 e3be 68a6 313d e9da cfbe 496c 033e
00000010: 10ab c4bc e031 7a3e 4551 57be 58f8 1dbd
00000020: 776f 22be 69e5 d63d 0edb aabf 6ee8 a93d
00000030: cdd2 c23d 40d4 00bf 7f1a 3abe c92f e5bc
00000040: 867d 94bf f81f b3be 16f5 a9be ee83 aabe
00000050: 5963 e13d 2cc5 6fbe 450d 5e3d 055a c9be
00000060: 7e9c 863e ebb8 4dbd 8856 6f3d 285f cabd
00000070: 36ec 39bf ae67 debc ec16 c0be 15d2 21be
00000080: 7ac3 a1bc 90ee 683d d849 64be 8a0c f3bd
00000090: eac1 1bbf cc02 45be 3a2f 8bbe c99f ba3d
000000a0: bd7c 20be b8cb af3d 5adb 133c dd15 83bd
000000b0: 6911 383e 25c7 d3bd 8749 963d f462 57bf
000000c0: 3aab 18be 449d 85bf ab61 bbbe 1c63 c43d
000000d0: d8bb ddbe 4388 a73d e0f4 463d 5589 783e
000000e0: dec4 a8be 5843 d83c 148c 04be 7ae1 953d
000000f0: 9908 a7bf 94c5 d73d 899c 133d bc90 01bf
00000100: 9fc9 94bd c9ea b3bc f945 90bf 202a d8be
00000110: 90b8 a1be e7df e2be 71ba d23c 4216 10be
00000120: 11ca c4bd 3f2a babe 59ef 6a3e e73a 183e
00000130: 2c97 2bbd e16f 81bd 4b8e 2cbf 8a17 893d
00000140: ec75 cfbe 7bb7 1fbe 4a01 3b3c 45a5 333e
00000150: a936 b0bd c3eb b6bd 8546 0abf ff43 b1be
00000160: ba09 58be 92eb 5abd 449b 063d c810 ea3b
00000170: 2b94 c23d 645a 4abe dae5 053e 2ebf c4bc
00000180: 36b8 48be 4d85 54bf 9172 0dbe 8967 8dbf
00000190: 7555 a2be 45bd cc3c d401 bdbe f86f 683e
000001a0: 3bb0 eb3c 2b4e 393e 546a 95be 858d b0bc
000001b0: 612a 8dbc 8648 b7bd 9169 a2bf 8ce7 d73b
000001c0: 45b1 2f3e 85cd 20bf fd22 7ebe 8000 c0bd
000001d0: 4a8e 98bf 1489 f9be a1c1 15be 2899 dabe
000001e0: c900 e4bd f583 25be 46b8 3ebd bf73 83be
000001f0: f88d 763e 0679 8c3d 3819 b83d 7e9a 233d
00000200: 70be 46bf 1318 07be c616 e3be c8f3 7ebe
00000210: a3e6 9c3c 29de ce3d 6244 0abe 9018 32bd
00000220: a855 f2be e5c5 81be 4772 96be fc68 9bbd
00000230: 24bd 68bd e1d1 ad3d b168 373e d4eb 0abe
00000240: 8f73 1f3e 0c5a 36be 5a67 abbc 3fe1 3bbf
00000250: 732b 56be 4b2d 80bf 82fc dabe f7df f23d
00000260: 2a26 a4be 12ff 703e c0e3 873d b8d7 703d
00000270: 0156 c0bd a8ed f83c dcb2 7cbd 382d bc3d
00000280: 2e27 9abf 71ff ae3d 2bb1 123e 8d88 25bf
00000290: 85e0 33be cfc9 1bbd 98bf 8bbf 8da2 9fbe
000002a0: f5e0 47be 260d 0dbf e5f6 2a3d ad33 0abe
000002b0: b7bc 44bd b0ea adbe 328c 353e 31a6 063e
000002c0: cf47 253d fec6 d13c 6879 66bf a48d 47bd
000002d0: a1bc f2be dfe2 0cbe 7fbf 52bc eaf0 443d
000002e0: a9f3 5abe 1754 86be da8a ecbe 0a67 a6be
000002f0: 7e6c 1cbe 761f 453d 8410 88bd 0590 2f3e
00000300: 8afb 203c d718 22be 1c8e 353d a282 f3bd
00000310: 702c 083b d06b 3ebf dbdf 91be 9721 87bf
00000320: d569 74be 67a5 be3d 8a36 d4be ec93 0b3e
00000330: 89dd 8d3d 788a 7a3e 2f88 3cbe b26e 02be
00000340: f78e 953d 9ed5 dc3a 075c aabf 0165 ea3c
00000350: 2725 eb3b 5dae 1bbf 6898 3dbe b930 9dbd
00000360: 467f 75bf 1e1a acbe 03c1 adbe aca0 c2be
00000370: 80b3 88bd 05f1 4cbe 3364 4ebe b73a 93be
00000380: 3698 aabc 2b0d 063e 435b c93c c33f f2bd
00000390: b05d 59bf 7b98 51bd 4e68 bbbe a4ee 7bbe
000003a0: 2871 663d e00d 013d e811 a7bd 25a5 04bd
000003b0: a64d cdbe 14f3 8fbe 9cbe 5dbe dff3 a73d
000003c0: 4f67 783d 22a5 9b3c ceff 13bd 8f26 c2bd
000003d0: 21fe 233e a0ee 45bd 7f18 cdbd f34a 36bf
000003e0: c0b3 6dbe db88 5ebf 0cd0 71be 598e e23c
000003f0: 48c9 babe 10d0 123e eca6 ef3d e1f9 723e
-0.4436597 0.043371588 -0.40596703 0.12834276 -0.02400735 0.24433088 -0.21027096 -0.038566917
-0.15862833 0.10492975 -1.33481 0.082962856 0.09512863 -0.5032387 -0.1817417 -0.027976887
-1.1600807 -0.34985328 -0.33194798 -0.3330378 0.11005277 -0.23415059 0.054211874 -0.39326492
0.2629127 -0.05022518 0.058432132 -0.09881431 -0.72626054 -0.027149048 -0.37517488 -0.15802796
-0.01974653 0.056868136 -0.22293794 -0.11867626 -0.60842764 -0.19239348 -0.27184469 0.09112508
-0.15672584 0.08583778 0.009024465 -0.064006545 0.17975391 -0.10340718 0.07338243 -0.84135365
-0.14909068 -1.0438619 -0.36597952 0.09589216 -0.43307376 0.08180287 0.048573375 0.24271138
-0.32962698 0.0263993 -0.1294406 0.07318397 -1.3049499 0.10535732 0.036037955 -0.5061147
-0.07265019 -0.02196254 -1.1271354 -0.4221964 -0.31586123 -0.4431145 0.025723668 -0.1407099
-0.096088536 -0.36360356 0.22942866 0.1486622 -0.041892216 -0.06320167 -0.6740462 0.06693943
-0.40519655 -0.15597336 0.011413882 0.17543514 -0.086041756 -0.08931687 -0.54013854 -0.3462219
-0.2109746 -0.053447314 0.032862917 0.0071431138 0.09500917 -0.19761044 0.13075963 -0.024016943
-0.19601521 -0.830159 -0.13813235 -1.1047221 -0.31705824 0.024992594 -0.36915457 0.22698963
0.028770557 0.18096225 -0.29182684 -0.021551857 -0.017232122 -0.089493796 -1.2688466 0.006588882
0.17157467 -0.628136 -0.24818034 -0.09375095 -1.1918423 -0.48737395 -0.14624645 -0.42694974
-0.11132962 -0.16163619 -0.046562456 -0.25674245 0.24077594 0.06859021 0.08989185 0.039942257
-0.77634335 -0.13192777 -0.44353312 -0.24897683 0.019152945 0.101009674 -0.13502648 -0.043480456
-0.47330976 -0.25346294 -0.29384062 -0.075883836 -0.056821004 0.08487297 0.1791103 -0.13566524
0.15571426 -0.17807788 -0.020923305 -0.73390573 -0.20915012 -1.0013822 -0.42770773 0.11859124
-0.32060367 0.23534802 0.06635237 0.058799475 -0.09391404 0.03038676 -0.06169401 0.09188312
-1.2043207 0.08544815 0.14325397 -0.64661485 -0.17566116 -0.038034257 -1.0917845 -0.31178704
-0.19519408 -0.5509819 0.041739363 -0.13496275 -0.048031535 -0.33968115 0.17729262 0.13149334
0.040351685 0.025607582 -0.90029 -0.048719063 -0.47409537 -0.1375842 -0.012863039 0.048081316
-0.21382011 -0.2623603 -0.46199685 -0.32500488 -0.15275761 0.048125707 -0.06643775 0.17144783
0.009825597 -0.15829788 0.04432498 -0.118901506 0.002077844 -0.7438326 -0.284911 -1.0557126
-0.23868497 0.09308892 -0.4144786 0.13630646 0.0692702 0.24466884 -0.18411325 -0.1273754
0.07302659 0.0016848331 -1.3309335 0.028612616 0.0071760598 -0.6081293 -0.1851517 -0.07675309
-0.9589733 -0.33613676 -0.3393632 -0.38013208 -0.06674862 -0.20013817 -0.2015541 -0.28755733
-0.020824533 0.1309096 0.02457965 -0.11828568 -0.8490858 -0.051170807 -0.36603016 -0.24602753
0.056260258 0.031507373 -0.08157712 -0.032384057 -0.40098304 -0.2811514 -0.21654743 0.082008116
0.060645398 0.01899964 -0.036132626 -0.09480011 0.16014911 -0.048323274 -0.10014438 -0.71208113
-0.232131 -0.86927575 -0.2361452 0.027655767 -0.3648169 0.14337182 0.1170176 0.23728134

fc5.bias f4 [100]
00000000: 64eb 4cbe 51b2 15be fc81 3fbe 9269 88bd
00000010: 2683 07be e6a1 30be cedb c03d 77eb 373b
00000020: c44f 713c 4c80 33bd 7029 c63d 0453 143e
00000030: af06 f7bc 74ed 90bc 6161 c93d 15ff 9ebd
00000040: fc31 8c3c cef9 c4bc a764 d1bd c847 a0bd
00000050: c650 06be c03b eabd 5e8b ca3c be90 7ebc
00000060: 6985 30bd 0167 c23d 0aeb 67bd 21e8 bbbd
00000070: ab37 d63c f1de da3c c2b2 5d3d 95a4 9bbd
00000080: baca 86bc f7a2 49bd 0cc2 d2bc 61dd e5bd
00000090: ec4b a3bd bac9 01be 9c2c 30bd 7527 6cbd
000000a0: 34f5 86bd 7577 233e f153 48bb 6385 2dbd
000000b0: 7aac 7d3d 0300 97bc 59cc 543c 2968 0f3e
000000c0: d03d 6c3e 35c0 053e b6d6 a73b b9b6 1abd
000000d0: 2708 4f3b 4be8 103e 09eb 293d 0f2e 243e
000000e0: 79fb 293e 35f9 6f3d 65d3 ba3d f888 bd3c
000000f0: d521 213d 577c b1bd e083 073d 9479 b7bc
00000100: 96aa d4bc e8b7 34be 4493 01bd e2f0 f73c
00000110: df60 b2bd c43c 6b3a 0bf3 3bbd c94d eebb
00000120: b360 27bd 7851 9fbc 569a d6bd b819 eb3b
00000130: 8760 373c c1a6 d63d 5239 94bd cbf4 68bc
00000140: 5ec5 193e 32af d83d c6bd b23d 3de8 123e
00000150: e520 933d 011f 733d c1f4 5e3d 82d2 ac3d
00000160: 6f7e 86bd 3f2c 213d 6321 833d 3eff 163d
00000170: 87a9 ce3b 2bab 53bd 1034 1e3d 3632 a83d
00000180: ac76 0fbd 43ec eabc b416 89bd 5f3d e9bd
-0.2001167 -0.14618804 -0.18701929 -0.06660761 -0.13233623 -0.1724926 0.094169244 0.0028063932
0.01472849 -0.043823525 0.09675872 0.14484793 -0.030154554 -0.017691351 0.09833027 -0.07763497
0.017113678 -0.024044897 -0.10224276 -0.07826191 -0.1311675 -0.11437178 0.024724659 -0.015537439
-0.04309598 0.09492303 -0.056620635 -0.091751345 0.026149591 0.026717635 0.054125555 -0.07599751
-0.01645409 -0.04922768 -0.025727294 -0.11223865 -0.07973465 -0.12674609 -0.043011293 -0.057654817
-0.065897375 0.15963538 -0.003056761 -0.042363536 0.061932065 -0.018432623 0.012988173 0.14004578
0.23070455 0.13061602 0.005122031 -0.037771914 0.0031590553 0.14151113 0.041483913 0.16033195
0.16599835 0.05858727 0.091223516 0.0231366 0.039338905 -0.08666294 0.03308475 -0.02239684
-0.025960248 -0.1764828 -0.031634584 0.030266229 -0.08709883 0.00089735934 -0.04588608 -0.0072724563
-0.040863704 -0.019448027 -0.10478656 0.007174697 0.0111924475 0.104810245 -0.072374955 -0.014218519
0.15016696 0.10580291 0.08727603 0.14346404 0.071840085 0.05935574 0.054432634 0.08438589
-0.06567084 0.039348837 0.064028524 0.03686451 0.0063068303 -0.05167691 0.03862387 0.08212702
-0.035025284 -0.028677111 -0.066937834 -0.11388659
